best_policy_664_3000.model (torch, 422646 bytes, 15 tensors)

conv1.weight f4 [32, 4, 3, 3]
0.1710297 0.33479017 0.49379537 -0.23951194 0.14884764 0.23879173 0.16667528 0.12683398
-0.2541561 -0.18834688 -0.33211663 0.27018744 -0.25624046 -0.0733829 0.12094112 0.003241662
-0.12912472 -0.32347938 -0.0644277 0.064003006 0.019615483 0.09271336 0.09910138 0.09580109
0.18670368 0.06650448 -0.038340613 -0.03312448 0.04235267 0.17327662 -0.18273117 -0.09450958
0.13502657 0.10887459 0.10622527 -0.05922598 0.45262593 0.29224 0.09971597 0.49859768
0.27711505 0.16358842 0.17543875 0.18915538 -0.4694439 -0.029595548 -0.23523423 -0.35845667
-0.12832555 0.21437348 -0.025934534 -0.2568021 -0.03775399 -0.19459407 0.24250755 0.062049873
-0.074746914 -0.013824972 -0.099093094 -0.08623135 -0.055565186 -0.081967205 -0.016549036 -0.08258133
0.007810099 -0.13013771 0.17256384 0.04832572 -0.1651438 -7.116431e-05 0.07689058 -0.18121628
0.115076885 -0.06548923 0.0818579 0.055180915 -0.2547265 0.5024116 0.22907956 0.29635268
-0.65465814 0.2364629 -0.06427172 -0.19622411 -0.25787663 0.19102381 -0.5172558 -0.27525577
0.41432846 0.24985853 0.07946791 -0.016841792 -0.0001448217 0.07685266 0.033969365 -0.03300609
0.13693014 0.027620764 0.01968175 -0.23312709 -0.0022594263 0.014382441 -0.04145489 0.0121828085
0.23063011 0.041553784 0.024114486 0.10134234 0.16181733 -0.3200296 0.20771912 -0.19660264
-0.02445233 0.13162832 -0.33998826 -0.19079247 -0.41471842 0.2905881 0.13010746 -0.41839612
0.3820021 0.057655312 -0.3090852 0.22902353 0.07605085 -0.54313284 0.05921831 0.17385468
0.10922407 0.03560428 -0.02379693 0.24629849 0.042960968 0.037103854 0.069448836 0.09360144
-0.09509278 0.105244726 0.09854883 -0.09952104 0.076659724 -0.011498874 0.03435792 -0.09532676
0.25686657 0.1932552 -0.6769815 -0.028233295 0.015965723 0.22890879 0.2533146 -0.36059314
0.64206487 0.19423024 0.24914274 0.30624682 -0.010413118 -0.26407698 0.08019871 0.13832462
-0.058917023 0.062133554 -0.081785075 0.120376155 0.14810976 -0.012972087 -0.065244325 -0.0011012773
-0.09966686 -0.05243306 -0.03190256 -0.1978164 0.124257855 -0.05681586 0.0012277992 0.09696397
0.0367306 0.008511895 0.13972098 -0.06598811 -0.3985181 0.021345884 0.16253369 -0.23360884
0.5207265 0.3006059 0.054324113 0.5755655 0.32318267 -0.18054278 -0.086947 0.108565256
0.17076074 0.2258801 -0.31754738 -0.25435135 -0.22852935 -0.083014384 -0.089249 -0.025075343
-0.05485065 -0.19716783 0.011296824 0.03261023 0.06801311 0.006161483 0.09075146 0.063899584
-0.025090137 0.039411504 0.06522351 0.11886562 0.037398178 -0.11227176 -0.21458459 -0.08577973
-0.16937369 0.12524544 0.23286022 0.21780875 0.055225804 0.05266265 0.2313729 -0.3153491
-0.036198128 -0.22473277 0.5101423 0.10208525 -0.4542829 -0.04650007 -0.12002813 -0.18901171
0.11030598 -0.24821928 -0.23989749 0.039857168 -0.14797933 -0.007094577 -0.122109935 -0.18917319
-0.16434355 -0.020447016 -0.13508464 -0.12694532 -0.15789922 0.08536476 0.032423582 -0.17264369
-0.12941393 0.026751881 -0.08508637 -0.11827853 -0.09444882 0.2566077 -0.20973079 0.5158459
00000000: 6922 2f3e 9e69 ab3e bfd2 fc3e 9e42 75be
00000010: 846b 183e d285 743e edac 2a3e c4e0 013e
00000020: c020 82be 01de 40be 310b aabe 0256 8a3e
00000030: f331 83be c649 96bd faaf f73d 1072 543b
00000040: 4539 04be 179f a5be acf2 83bd 0214 833d
00000050: a6b0 a03c 81e0 bd3d aaf5 ca3d 5d33 c43d
00000060: 402f 3f3e 8033 883d 0c0b 1dbd 89ad 07bd
00000070: fe79 2d3d 6d6f 313e e11d 3bbe 3d8e c1bd
00000080: 6844 0a3e a4f9 de3d a28c d93d f196 72bd
00000090: 96be e73e 7ba0 953e e337 cc3d 3248 ff3e
000000a0: 06e2 8d3e b983 273e 37a6 333e f3b1 413e
000000b0: f35a f0be 5d72 f2bc 3ee1 70be a287 b7be
000000c0: c667 03be b984 5b3e a974 d4bc 917b 83be
000000d0: eea3 1abd ab43 47be e653 783e 0228 7e3d
000000e0: e914 99bd 2382 62bc 52f1 cabd 109a b0bd
000000f0: 5298 63bd 6cde a7bd d891 87bc 6620 a9bd
00000100: dceb ff3b d242 05be 93b4 303e 31f1 453d
00000110: 751b 29be 0c3e 95b8 cf78 9d3d c390 39be
00000120: 6ead eb3d 381f 86bd 1da5 a73d 6205 623d
00000130: 836b 82be 0c9e 003f d593 6a3e 8abb 973e
00000140: ad97 27bf 5523 723e e4a0 83bd f9ee 48be
00000150: 6808 84be bf9b 433e e06a 04bf 53ee 8cbe
00000160: dc22 d43e eada 7f3e 12c0 a23d ccf7 89bc
00000170: 47db 17b9 ed64 9d3d 7623 0b3d 6531 07bd
00000180: 6a37 0c3e f144 e23c 9f3b a13c deb8 6ebe
00000190: e212 14bb 54a4 6b3c 9acc 29bd 679a 473c
000001a0: 4d2a 6c3e 4d34 2a3d be8b c53c 938c cf3d
000001b0: 71b3 253e ebda a3be 52b4 543e 3452 49be
000001c0: 4150 c8bc 93c9 063e f112 aebe 1a5f 43be
000001d0: f955 d4be f7c7 943e e43a 053e 0438 d6be
000001e0: c795 c33e fa27 6c3d 6a40 9ebe 2585 6a3e
000001f0: 8cc0 9b3d c10a 0bbf e68e 723d f606 323e
00000200: dfb0 df3d cbd5 113d c8f1 c2bc ac35 7c3e
00000210: d7f7 2f3d 36fa 173d 313b 8e3d 1db2 bf3d
00000220: 01c0 c2bd 8c8a d73d f8d3 c93d b0d1 cbbd
00000230: c6ff 9c3d c665 3cbc e4ba 0c3d ad3a c3bd
00000240: 0484 833e b1e4 453e a94e 2dbf 8349 e7bc
00000250: 8cca 823c 1167 6a3e 74b2 813e aa9f b8be
00000260: 5d5e 243f 4be4 463e 461f 7f3e 62cc 9c3e
00000270: c89b 2abc 1935 87be 393f a43d f8a4 0d3e
00000280: fa52 71bd c17f 7e3d ef7e a7bd c687 f63d
00000290: 16aa 173e e088 54bc d19e 85bd bc58 90ba
000002a0: 241e ccbd 0cc4 56bd 42ac 02bd 6290 4abe
000002b0: e77a fe3d bfb7 68bd 1bee a03a 0c95 c63d
000002c0: d372 163d 7a75 0b3c 0413 0f3e c624 87bd
000002d0: 900a ccbe 90dd ae3c 3b6f 263e 2837 6fbe
000002e0: 554e 053f 04e9 993e f682 5e3d 4358 133f
000002f0: 3378 a53e 35e0 38be 4511 b2bd 7657 de3d
00000300: e7db 2e3e 1d4d 673e 9295 a2be 573a 82be
00000310: 9903 6abe 7203 aabd 2ec8 b6bd ce6a cdbc
00000320: 13ab 60bd 5de6 49be 5016 393c 4e92 053d
00000330: 754a 8b3d 44e6 c93b e7db b93d c9dd 823d
00000340: d589 cdbc f56d 213d e793 853d d16f f33d
00000350: d52e 193d bdee e5bd 10bc 5bbe 48ad afbd
00000360: 4c70 2dbe 5740 003e e972 6e3e 4209 5f3e
00000370: 7434 623d cab4 573d 04ed 6c3e 7075 a1be
00000380: 7d44 14bd 5920 66be b098 023f 1212 d13d
00000390: c597 e8be db76 3ebd 4fd1 f5bd 498c 41be
000003a0: 1ae8 e13d 322d 7ebe b0a7 75be 4541 233d
000003b0: e587 17be a079 e8bb c614 fabd 9eb6 41be
000003c0: ad49 28be 8080 a7bc a153 0abe f4fd 01be
000003d0: 55b0 21be b8d3 ae3d 97ce 043d 82c9 30be
000003e0: 1685 04be c326 db3c c341 aebd 043c f2bd
000003f0: 626e c1bd 1662 833e abc3 56be 7a0e 043f

conv1.bias f4 [32]
-0.17087045 -0.1345875 -0.034682192 -0.046608534 -0.11761174 -0.07214442 0.15453562 -0.14828871
-0.23556335 0.07436672 0.1018709 -0.10611079 -0.09731577 -0.02697504 -0.1453828 -0.21516502
-0.07586996 0.14417896 -0.08275579 -0.15538953 0.03507241 0.0038795746 -0.08069668 0.06000505
-0.17498356 0.062529214 -0.11502053 0.0013415081 0.051352464 -0.117397726 -0.082688384 -0.108500816
00000000: aaf8 2ebe 4ed1 09be ea0e 0ebd 97e8 3ebd
00000010: 6dde f0bd 74c0 93bd 963e 1e3e ffd8 17be
00000020: 8537 71be 944d 983d b1a1 d03d 9d50 d9bd
00000030: 7e4d c7bd c2fa dcbc 3bdf 14be 3854 5cbe
00000040: b661 9bbd a6a3 133e de7b a9bd 6f1e 1fbe
00000050: 16a8 0f3d 7640 7e3b 4d44 a5bd dbc7 753d
00000060: e42e 33be 510f 803d e28f ebbd 8bd5 af3a
00000070: f656 523d 386e f0bd 8758 a9bd ad35 debd

conv2.weight f4 [64, 32, 3, 3]
0.0116405105 -0.123222694 -0.020366484 0.011241957 0.23539038 -0.31886837 -0.35338897 -0.22224689
-0.26001388 0.060368184 0.05231052 -0.14279844 0.04117743 0.19012465 0.119015284 0.16054586
-0.06959605 -0.12937795 -0.028436758 0.1199905 -0.27150187 0.22358121 0.3140638 -0.3192435
-0.028628195 0.5024597 0.055557698 0.14033756 0.09755258 -0.13819098 -0.002458222 -0.027376158
-0.07353585 -0.21515636 -0.32930177 0.10875077 0.04091134 0.31592232 0.018297544 -0.1816505
0.058461685 0.09380545 -0.14125082 0.032072533 0.031033695 0.00076271704 -0.14242569 -0.033420503
0.005607332 -0.027443152 0.08663551 -0.067171454 0.013627091 -0.10264579 0.03665992 -0.04058867
0.10840111 0.14547245 -0.053020615 -0.07475297 -0.17178 -0.07275688 -0.27952564 -0.21394336
-0.1453302 -0.11912577 0.12347598 -0.14243852 -0.42958286 0.09656269 -0.17253703 -0.33126438
0.012200691 -0.3816209 -0.15268266 0.05519312 0.00084265607 -9.504376e-06 0.16210726 0.14747125
-0.37742016 -0.25344786 0.0112666525 0.04522058 0.15280251 -0.09400964 -0.07678956 -0.20124544
-0.0063294265 0.046003703 0.014931427 0.07661109 0.0846125 -0.14015809 0.20079237 0.08178377
-0.078320056 -0.2115122 0.052786715 -0.19573537 -0.07002847 0.11346372 -0.023384005 0.12771332
-0.009168914 -0.020995805 0.057140484 0.11607358 -0.13520725 -0.023095312 0.15493686 -0.04560347
0.10016416 0.06259443 -0.11414278 0.01851635 0.06672739 -0.0037541813 0.045926373 -0.23137149
-0.4030585 0.30113104 0.0129920095 -0.17907907 0.089951925 -0.05525571 -0.41548184 -0.030530524
0.19198686 0.21820621 -0.053599745 -0.04122619 -0.054534383 0.005280244 -0.048325848 0.14001204
-0.062135283 -0.061729856 0.3936147 0.056972824 -0.07514611 -0.07828252 0.17217553 0.0013799237
-0.058099322 -0.02840009 0.10601042 -0.15450375 0.1436981 0.05471583 -0.3106011 -0.047600318
-0.13200173 -0.104834214 -0.16020371 0.20375733 -0.12858897 -0.1981978 -0.02373878 -0.15331417
0.04824689 0.17376705 -0.15979058 0.096252516 -0.027128795 -0.053441923 -0.094232656 0.15361084
-0.21470708 0.10675712 0.11939581 -0.045350652 -0.3313251 -0.24093187 0.0073960316 -0.074028276
-0.036970988 0.120318025 -0.321181 -0.031036321 -0.013532941 -0.024267158 -0.31413063 -0.015957544
0.06792705 0.14954042 -0.091136165 0.006635142 -0.08717061 0.14154765 0.16830862 -0.14024141
0.40108192 0.12093907 -0.17162849 -0.27022606 -0.16663523 0.2081014 -0.1862036 0.047539096
0.017581036 -0.0033858016 0.1328711 -0.089833416 0.11771972 0.0363013 0.39088896 0.048965216
-0.07755265 0.009936817 0.046229646 0.023010978 0.372799 -0.3068485 -0.22398567 -0.079372965
0.031991374 0.16979519 0.24570198 -0.119079836 -0.05485208 0.1836632 0.05197204 0.082983665
0.089898385 -0.08178687 -0.016722115 0.3766792 -0.06554062 -0.21828549 0.2893775 0.04663372
-0.23281634 -0.11785443 0.15340795 0.05118648 0.0016085805 -0.03771581 0.37780175 0.10734045
-0.07379293 -0.27366358 -0.005286161 -0.20496841 0.046506982 0.04621078 -0.13854578 -0.16400166
-0.04267504 -0.21235986 -0.09212429 -0.06990345 -0.03314278 0.052208833 0.24483089 0.10143002
00000000: d7b7 3e3c 2e5c fcbd 9dd7 a6bc 2f30 383c
00000010: 2d0a 713e b742 a3be 66ef b4be b094 63be
00000020: 8a20 85be a144 773d 8e43 563d c139 12be
00000030: aaa9 283d 09b0 423e 49be f33d 2266 243e
00000040: 6088 8ebd a77b 04be 34f4 e8bc 94bd f53d
00000050: 4b02 8bbe 79f2 643e f8cc a03e e273 a3be
00000060: ad85 eabc 33a1 003f 7890 633d a6b4 0f3e
00000070: a6c9 c73d f081 0dbe 1f1a 21bb f743 e0bc
00000080: f799 96bd f351 5cbe 3e9a a8be b9b8 de3d
00000090: a692 273d 92c0 a13e bbe4 953c 9702 3abe
000000a0: 8575 6f3d 121d c03d 0ea4 10be 7d5e 033d
000000b0: 603a fe3c 13f1 473a 0ad8 11be f0e3 08bd
000000c0: b6bd b73b 76d0 e0bc f56d b13d 3091 89bd
000000d0: 2a44 5f3c f537 d2bd b628 163d 4e40 26bd
000000e0: 6701 de3d bbf6 143e 252c 59bd 1618 99bd
000000f0: 19e7 2fbe 8f01 95bd fc1d 8fbe f813 5bbe
00000100: 71d1 14be 36f8 f3bd f9e0 fc3d 67db 11be
00000110: 49f2 dbbe a9c2 c53d 8cad 30be 7c9b a9be
00000120: 68e5 473c d163 c3be d858 1cbe 2e12 623d
00000130: b1e5 5c3a fc74 1fb7 72ff 253e b402 173e
00000140: 373d c1be ebc3 81be c497 383c 3739 393d
00000150: 4378 1c3e 2088 c0bd d843 9dbd 4913 4ebe
00000160: 1467 cfbb 616e 3c3d f2a2 743c 46e6 9c3d
00000170: 5249 ad3d 9a85 0fbe 849c 4d3e 407e a73d
00000180: 4466 a0bd a796 58be e236 583d da6e 48be
00000190: 166b 8fbd ab5f e83d d08f bfbc 48c7 023e
000001a0: 3639 16bc 65ff abbc 240c 6a3d fcb7 ed3d
000001b0: c573 0abe 6132 bdbc c5a7 1e3e b4ca 3abd
000001c0: de22 cd3d 8231 803d b1c3 e9bd 9aaf 973c
000001d0: 5fa8 883d b608 76bb 4b1d 3c3d a6ec 6cbe
000001e0: af5d cebe d92d 9a3e 70dc 543c 8160 37be
000001f0: b738 b83d d053 62bd 09ba d4be 261b fabc
00000200: 3498 443e 7371 5f3e 688b 5bbd cbdc 28bd
00000210: 725f 5fbd e605 ad3b 53f1 45bd 515f 0f3e
00000220: 9181 7ebd 72d8 7cbd de87 c93e 565c 693d
00000230: 34e6 99bd 9652 a0bd c84e 303e 8ede b43a
00000240: 8ef9 6dbd 4ea7 e8bc fe1b d93d 3b36 1ebe
00000250: 9825 133e b51d 603d 1b07 9fbe 8df8 42bd
00000260: 762b 07be 52b3 d6bd 710c 24be c3a5 503e
00000270: d4ac 03be 5df4 4abe d477 c2bc 64fe 1cbe
00000280: 889e 453d fdef 313e 24a0 23be 0a20 c53d
00000290: 353d debc ebe5 5abd 0dfd c0bd 294c 1d3e
000002a0: 2cdc 5bbe 7aa3 da3d ca85 f43d 9bc1 39bd
000002b0: 72a3 a9be d8b6 76be 695a f23b 239c 97bd
000002c0: e46e 17bd 4c69 f63d d671 a4be e23f febc
000002d0: 45b9 5dbc ebcb c6bc bbd5 a0be 65b9 82bc
000002e0: 561d 8b3d 2021 193e 99a5 babd 9b6b d93b
000002f0: 8186 b2bd def1 103e 1859 2c3e 729b 0fbe
00000300: 9c5a cd3e e7ae f73d 61bf 2fbe 125b 8abe
00000310: 6da2 2abe 8918 553e 28ac 3ebe 5bb8 423d
00000320: 1b06 903c 53e4 5dbb 5d0f 083e 95fa b7bd
00000330: 0917 f13d acb0 143d 9922 c83e c08f 483d
00000340: ecd3 9ebd 08ce 223c 4c5b 3d3d 8581 bc3c
00000350: 83df be3e 3f1b 9dbe 805c 65be 4b8e a2bd
00000360: 6309 033d cade 2d3e 4d99 7b3e 21e0 f3bd
00000370: 93ac 60bd 3512 3c3e a2e0 543d 57f3 a93d
00000380: a51c b83d e07f a7bd d1fc 88bc 19dc c03e
00000390: 293a 86bd 3b86 5fbe 4a29 943e 0003 3f3d
000003a0: 6867 6ebe aa5d f1bd f916 1d3e eaa8 513d
000003b0: 01d7 d23a e57b 1abd 3b6f c13e 4fd5 db3d
000003c0: bf20 97bd a21d 8cbe 8837 adbb 3de3 51be
000003d0: 1b7e 3e3d 8447 3d3d f2de 0dbe 0df0 27be
000003e0: 06cc 2ebd dd74 59be a9ab bcbd 8a29 8fbd
000003f0: b9c0 07bd eed8 553d f3b4 7a3e 8bba cf3d

conv2.bias f4 [64]
0.037112 -0.119510405 0.007518564 -0.15029839 0.03626061 -0.023433004 -0.20153092 -0.08117076
-0.061265178 -0.013978693 -0.1573863 -0.05187103 -0.1869955 0.041300815 -0.06728606 -0.11826688
-0.0037332217 0.18444109 0.120374225 -0.014133585 0.014910543 -0.017313056 -0.017840944 -0.11648131
-0.14604308 -0.1856622 0.01029478 -0.006900064 -0.10848278 -0.03373474 -0.050329175 0.08208457
-0.07801758 -0.044764474 0.01608456 -0.13532645 0.09602502 0.16855317 0.08773889 -0.06609189
-0.07442512 -0.055569332 -0.12751465 0.0087391045 0.07163828 -0.07137267 -0.011528939 0.008572211
-1.4639532e-09 0.12995742 -0.032219093 -0.07919813 0.003060985 -0.09546106 0.08497577 0.010357955
-0.03525287 -0.1528371 -0.09359724 -0.2070965 -0.18212688 -0.064686164 -0.01464958 -0.030050753
00000000: c102 183d dfc1 f4bd 495e f63b d2e7 19be
00000010: 0186 143d 92f6 bfbc 1f5e 4ebe db3c a6bd
00000020: 32f1 7abd e306 65bc e029 21be b876 54bd
00000030: c07b 3fbe 0b2b 293d 46cd 89bd e835 f2bd
00000040: 11a9 74bb 20de 3c3e c386 f63d 8d90 67bc
00000050: 5a4b 743c 1cd4 8dbc 2c27 92bc c18d eebd
00000060: 518c 15be 3b1e 3ebe 70ab 283c ef19 e2bb
00000070: 382c debd 702d 0abd f725 4ebd f41b a83d
00000080: aec7 9fbd f45a 37bd c4c3 833c 0493 0abe
00000090: c4a8 c43d 3499 2c3e 72b0 b33d 2f5b 87bd
000000a0: 336c 98bd ab9c 63bd 3393 02be 762e 0f3c
000000b0: 17b7 923d d62b 92bd e0e3 3cbc 7572 0c3c
000000c0: 4634 c9b0 8f13 053e 2bf8 03bd a132 a2bd
000000d0: ce9a 483b 1781 c3bd c707 ae3d 69b4 293c
000000e0: 5065 10bd 5481 1cbe e9af bfbd 1b11 54be
000000f0: 787f 3abe 2e7a 84bd cb04 70bc ff2c f6bc

conv3.weight f4 [128, 64, 3, 3]
0.15621279 -0.25776157 -0.041300613 0.10824291 0.19354203 0.031228928 -0.4284394 -0.018018596
-0.22198066 0.07009157 -0.1692567 0.032195512 -0.25341007 -0.0011493112 -0.24029297 -0.15844436
-0.04002809 0.003363255 -0.10389971 -0.034268375 0.25271735 -0.031678423 -0.028393881 -0.2284369
-0.07862117 -0.2254194 0.12936756 -0.105898365 0.16196185 -0.04729522 0.04681402 -0.11269633
0.22159036 0.05964155 0.06608777 -0.30359972 -0.063232385 -0.3655275 -0.19871633 -0.23542537
-0.013783608 0.015777618 0.019637078 -0.068619445 0.016982673 -0.071934186 -0.09041575 -0.05587663
0.036033295 -0.21690224 -0.15551563 0.09501312 0.107272334 -0.09486897 0.07317089 0.22896022
0.041281383 -0.16555685 0.055696193 -0.15183522 -0.08697003 -0.092158616 0.091135785 0.06058137
-0.080008894 0.097262256 -0.099927284 0.008971774 -0.08382922 -0.09135408 -0.21086009 -0.02789835
-0.008714717 0.18023793 0.14189692 0.32263625 0.16561878 0.06721587 0.060261834 0.16451746
0.15194266 -0.050007854 -0.08822164 -0.06958742 -0.012079377 0.038202368 0.038825464 0.010007528
0.0013798473 -0.08506934 -0.09452204 -0.08845445 -0.031298857 0.090570785 0.028750591 0.011188491
-0.1711297 0.023200456 -0.018285964 -0.03237167 -0.08992429 0.0733248 0.14995053 -0.10112519
-0.015767783 0.17431329 -0.052801352 0.112696014 -0.14049432 0.06547093 -0.16289937 -0.029693158
-0.31493944 -0.03689624 0.013645257 -0.17614354 0.075826384 -0.084668085 -0.1965762 -0.09072132
0.0368838 -0.045525834 -0.0019446048 0.2688139 0.07770001 -0.060399923 0.015163389 0.13976873
0.08671551 -0.18500346 -0.1630316 0.19606481 -0.047565185 0.06627858 -0.07314747 -0.010932911
-0.20569192 0.15819116 -0.15496615 0.04975203 -0.25880164 0.12037592 0.14030594 0.07998037
0.09320831 -0.11746448 -0.14245892 0.026560413 -0.027578352 0.119416125 -0.011359195 0.07535459
-0.07321742 -0.2176088 -0.124995895 -0.14944091 0.0070456015 -0.18300809 0.001029423 -0.28235784
-0.20169298 0.08263933 -0.04128988 -0.20214283 -0.09971987 0.040356733 -0.021040386 -0.06470033
0.17424257 -0.22322759 0.12229782 0.09309295 0.15500602 -0.2360441 -0.21969877 -0.08712936
0.01164438 0.04023477 -0.04872818 -0.13122183 0.05017349 0.0053954213 0.3226437 -0.14364594
-0.104617275 0.023764366 -0.14996874 0.22194125 -0.08449542 -0.24741763 -0.0012535821 0.026900124
-0.09514118 0.13412338 0.2054513 -0.09306343 0.23479147 0.17543848 0.0025679357 0.09807996
0.5222228 -0.06451585 0.061640505 -0.0858811 -0.058884293 -0.25603476 -0.117958695 0.1980386
-0.023735162 -5.692928e-05 0.0460059 0.054792203 -0.026340429 0.06468268 -0.10095828 0.0010638381
-0.07475013 -0.18674597 -0.11782903 0.05605719 0.024951348 0.07112889 0.103464596 0.040959142
0.04810784 0.2272392 0.1810184 -0.17705853 -0.0881637 -0.04394017 0.12024258 -0.05378953
-0.10526614 0.20819624 -0.10425623 0.10424048 -0.10833395 0.0032202802 0.15680803 -0.25269738
-0.08096794 0.14469959 -0.052302234 -0.06080191 0.08794567 -0.031735245 -0.14468896 -0.056791473
-0.040186618 0.11374123 -0.11962241 0.14533989 -0.09627433 -0.16863896 -0.08637767 0.13873518
00000000: 3ff6 1f3e 53f9 83be d52a 29bd 75ae dd3d
00000010: e22f 463e cfd3 ff3c 695c dbbe bc9b 93bc
00000020: e64e 63be 2b8c 8f3d a151 2dbe 71df 033d
00000030: f7be 81be 7ca4 96ba 5c0f 76be 3d3f 22be
00000040: 7ff4 23bd 0e6a 5c3b 5fc9 d4bd ff5c 0cbd
00000050: 2b64 813e 3cc1 01bd 499a e8bc 5deb 69be
00000060: 2304 a1bd 58d4 66be ee78 043e 3ee1 d8bd
00000070: 54d9 253e a2b8 41bd 0fc0 3f3d 55cd e6bd
00000080: 95e8 623e b34a 743d 0659 873d 6c71 9bbe
00000090: fb7f 81bd 6c26 bbbe 4b7c 4bbe 5913 71be
000000a0: a4d4 61bc 1040 813c f0dd a03c 5a88 8cbd
000000b0: 3f1f 8b3c 3b52 93bd e52b b9bd e5de 64bd
000000c0: a697 133d 9f1b 5ebe 7d3f 1fbe 3d96 c23d
000000d0: 99b1 db3d aa4a c2bd 9fda 953d 8c74 6a3e
000000e0: ab16 293d bc87 29be b121 643d b17a 1bbe
000000f0: 581d b2bd a8bd bcbd 66a5 ba3d 2c24 783d
00000100: b4db a3bd 6f31 c73d ada6 ccbd 59fe 123c
00000110: a7ae abbd d917 bbbd b5eb 57be 158b e4bc
00000120: 2cc8 0ebc 4b90 383e 6d4d 113e 9430 a53e
00000130: f897 293e 79a8 893d 1dd5 763d 4477 283e
00000140: db96 1b3e 09d5 4cbd 8cad b4bd d983 8ebd
00000150: 94e8 45bc 167a 1c3d 7307 1f3d 9df6 233c
00000160: fedb b43a d638 aebd c594 c1bd 9b27 b5bd
00000170: 3b33 00bd 2d7d b93d 5c86 eb3c ef4f 373c
00000180: a03c 2fbe e20e be3c 72cc 95bc 2898 04bd
00000190: 3a2a b8bd 502b 963d a28c 193e b91a cfbd
000001a0: 702b 81bc 2f7f 323e 3b46 58bd 2bcd e63d
000001b0: bedd 0fbe 9f15 863d 18cf 26be 113f f3bc
000001c0: be3f a1be 8320 17bd 5b90 5f3c f95e 34be
000001d0: dd4a 9b3d 7666 adbd 454b 49be 19cc b9bd
000001e0: 7813 173d 4c79 3abd 1ce2 feba faa1 893e
000001f0: 2f21 9f3d e965 77bd dd6f 783c 891f 0f3e
00000200: e797 b13d 8c71 3dbe c1f1 26be 37c5 483e
00000210: b6d3 42bd 10bd 873d 57ce 95bd f41f 33bc
00000220: e7a0 52be ddfc 213e 72af 1ebe c9c8 4b3d
00000230: a681 84be a687 f63d 5cac 0f3e c0cc a33d
00000240: 00e4 be3d 3891 f0bd c0e0 11be 3995 d93c
00000250: ffeb e1bc 7190 f43d eb1b 3abc 8253 9a3d
00000260: 04f3 95bd d7d4 5ebe d9fd ffbd 0a07 19be
00000270: cade e63b 7966 3bbe b4ed 863a 3591 90be
00000280: 9b88 4ebe cf3e a93d 941f 29bd 88fe 4ebe
00000290: ee39 ccbd 1a4d 253d e35c acbc 9b81 84bd
000002a0: a56c 323e c695 64be 4877 fa3d 84a7 be3d
000002b0: e6b9 1e3e 8bb5 71be b7f8 60be e170 b2bd
000002c0: 12c8 3e3c 37cd 243d 3397 47bd 045f 06be
000002d0: b882 4d3d 13cc b03b 8e31 a53e ec17 13be
000002e0: 9541 d6bd 7dad c23c 6891 19be 9144 633e
000002f0: ef0b adbd 0c5b 7dbe 3c4f a4ba a65d dc3c
00000300: 61d9 c2bd a457 093e d361 523e 0a98 bebd
00000310: 2d6d 703e 25a6 333e d04a 283b 25de c83d
00000320: 65b0 053f e320 84bd c17a 7c3d 6ee2 afbd
00000330: a830 71bd fd16 83be 5494 f1bd a1ca 4a3e
00000340: 3e70 c2bc 59c7 6eb8 af70 3c3d ca6d 603d
00000350: e2c7 d7bc 5a78 843d 37c3 cebd 7c70 8b3a
00000360: 9916 99bd 563a 3fbe 5950 f1bd 399c 653d
00000370: c566 cc3c 06ac 913d 3fe5 d33d c6c4 273d
00000380: ba0c 453d 65b1 683e e35c 393e d54e 35be
00000390: 2c8f b4bd 9cfa 33bd be41 f63d 6952 5cbd
000003a0: c695 d7bd 6531 553e 4a84 d5bd 087c d53d
000003b0: 31de ddbd 560b 533b 4992 203e 8d61 81be
000003c0: 85d2 a5bd 212c 143e de3a 56bd 6c0b 79bd
000003d0: dc1c b43d d1fc 01bd 5829 14be 2d9e 68bd
000003e0: b99a 24bd 29f1 e83d 98fc f4bd fbd3 143e
000003f0: 7a2b c5bd b1af 2cbe c7e6 b0bd 9810 0e3e

conv3.bias f4 [128]
-0.1262721 -0.08394516 -0.016561702 0.027005179 -0.058670916 -4.319207e-30 -0.1842068 -0.03410099
-0.15834515 0.1626307 0.20554645 0.05825421 -0.13981372 -0.00021002183 0.020655558 -0.056990825
0.056325182 -0.0056117685 0.084754735 -0.09528902 -0.19678274 0.12682626 -0.013291161 0.01566486
-0.1508825 0.06910889 -0.182931 0.17251252 -0.10350782 -0.063919224 -1.2107419e-16 -0.009861447
0.095668696 -8.6668844e-10 0.007160847 -0.23804598 0.17170635 -0.043234773 0.0043960437 -0.1111357
-0.103219435 -0.09823103 -0.075753525 -0.16511245 -0.05648891 -0.053325843 0.028623354 -0.03384389
-0.17703392 -0.04620534 -0.1366103 -0.15738663 0.4187655 0.0025594833 -0.14104386 0.016033245
0.002047766 0.14184459 -0.12866998 -0.064885095 0.10155395 0.0978667 0.31683812 0.082772404
-0.15010405 -6.0830425e-12 0.024313074 -0.15879332 0.047361247 -0.030859597 -0.07648977 0.11025685
-0.061350666 -0.021914111 0.084592134 -0.10311179 -0.06802233 0.113628075 -0.11054838 0.001552016
0.018133968 -0.046913885 -0.15413633 -0.0219846 -0.06523458 0.051516935 0.066913165 -0.020900035
-0.12791939 0.04880989 -0.009539918 -0.09846387 0.055384614 -0.042259652 -0.06050616 0.040328346
-0.043285217 0.04725558 -0.048313238 -0.27092487 0.32591853 0.16722858 0.008745153 -0.11641528
-0.057921074 -0.022310292 -0.10807322 0.09525792 0.06285794 -0.07123318 -0.18101318 -1.3469302e-17
-0.04886755 -0.063953675 -0.090571634 0.06068579 -0.12822852 -0.08566625 -0.1609671 -0.0846469
0.034630418 0.026530158 -0.03192847 -0.052149747 -0.0037411507 0.08299717 -0.078296624 -0.11748371
00000000: 794d 01be 71eb abbd 68ac 87bc f739 dd3c
00000010: ea50 70bd 3635 af8e b5a0 3cbe 7bad 0bbd
00000020: 3b25 22be aa88 263e c57a 523e f79b 6e3d
00000030: 542b 0fbe 4e39 5cb9 d835 a93c 366f 69bd
00000040: 3cb5 663d ede2 b7bb e493 ad3d e426 c3bd
00000050: 6a81 49be bede 013e 2bc3 59bc 9853 803c
00000060: f180 1abe f688 8d3d 4452 3bbe 1fa7 303e
00000070: e8fb d3bd 15e8 82bd cb96 0ba5 e891 21bc
00000080: f3ed c33d c73b 6eb0 8aa5 ea3b 53c2 73be
00000090: cad3 2f3e f216 31bd b00c 903b 1d9b e3bd
000000a0: b664 d3bd 5a2d c9bd aa24 9bbd 3d13 29be
000000b0: ea60 67bd 336c 5abd 867b ea3c e49f 0abd
000000c0: 6148 35be d041 3dbd 92e3 0bbe f629 21be
000000d0: 6e68 d63e 01bd 273b cd6d 10be 2758 833c
000000e0: d033 063b b53f 113e 10c2 03be 7ae2 84bd
000000f0: 84fb cf3d 566e c83d 9b38 a23e 9484 a93d
00000100: e0b4 19be 2d07 d6ac 362c c73c b79a 22be
00000110: defd 413d 44cd fcbc aba6 9cbd 58ce e13d
00000120: d64a 7bbd 3985 b3bc a43e ad3d 462c d3bd
00000130: 4b4f 8bbd d6b5 e83d 3067 e2bd 046d cb3a
00000140: b08d 943c c628 40bd ead5 1dbe 0c19 b4bc
00000150: b599 85bd 6c03 533d c509 893d 8d36 abbc
00000160: 4dfd 02be e1ec 473d 514d 1cbc 6da7 c9bd
00000170: fada 623d 7518 2dbd 4fd5 77bd 562f 253d
00000180: d74b 31bd 118f 413d 1ae4 45bd aab6 8abe
00000190: cbde a63e f83d 2b3e d547 0f3c 226b eebd
000001a0: a63e 6dbd 13c4 b6bc 7e55 ddbd 9616 c33d
000001b0: aabb 803d b4e2 91bd 855b 39be fb76 78a3
000001c0: 5729 48bd 25fa 82bd 9f7d b9bd aa91 783d
000001d0: 564e 03be c971 afbd 8fd4 24be 5b5b adbd
000001e0: a0d8 0d3d c655 d93c 6dc7 02bd f99a 55bd
000001f0: 182e 75bb 6cfa a93d fb59 a0bd 4d9b f0bd

act_conv1.weight f4 [4, 128, 1, 1]
-0.037988883 0.11740746 0.18426903 0.2809561 0.031012148 -5.1826e-41 0.29339617 -0.15550664
-0.2449272 0.028766489 0.116691045 -0.18208003 -0.19603506 -0.011298541 0.2283653 0.034193795
0.02850352 0.28018597 -0.77616334 0.038885865 0.029934838 -0.09143689 -0.03341115 0.124746315
0.20092899 0.054270934 0.09294591 0.02891154 -0.12138307 0.19735517 -4.9193e-41 0.68154526
0.012099509 0.0031105252 0.0071773715 0.0708882 0.021312522 -0.014186855 -0.051726513 0.263862
0.14298372 -0.009945475 -0.024978593 -0.072127156 -0.024487525 0.6153347 0.27720782 0.0015564087
0.12648994 0.04854166 0.048922513 0.10426789 0.13731652 0.56447756 0.025667885 -0.0080479365
0.5011657 -0.040484414 0.07516138 -0.034136843 -0.006462945 0.14101952 0.22014257 0.05148038
0.000288728 -9.152237e-09 -0.033616595 0.24600358 -0.04803426 -0.35502815 -0.08380765 -0.020287212
0.36626136 -0.10699259 -0.36180425 0.09262566 -0.024224823 0.3842612 0.071430385 -0.078720175
-0.6095348 -0.016706277 0.1141905 -0.08950545 0.14113012 -0.7265873 0.5152575 0.051955756
0.12552863 0.23393358 -0.54696476 0.038322043 -0.031725466 -0.32757992 0.11794166 0.0954441
0.018639622 -0.21681668 0.6872971 -0.10014719 0.058773972 -0.060023647 -0.32594272 0.079245456
-0.13339928 0.15969971 0.16670758 0.15139869 0.07891025 0.0040291436 0.026082076 -5.1059e-41
0.3385785 0.008891538 0.06513013 -0.09634821 0.15655981 -0.1852251 0.026659524 -0.13033196
0.39809877 0.007491457 0.21927764 -0.012155605 0.15899158 -0.06948298 0.043580316 0.11693756
-0.13120744 0.19248767 0.053261824 0.17730676 0.2555105 4.9364e-41 -0.19263203 0.14928162
-0.046483625 -0.19445667 0.05901101 -0.14554866 -0.0011131037 0.1544926 -0.1819046 0.2020555
-0.6511748 0.0033197436 0.20478205 -0.13711321 0.34789866 0.18157066 -0.14752585 0.0026023989
0.10810389 -0.08664291 0.15125847 -0.07542093 0.13008197 0.18126905 4.9111e-41 0.23575865
-0.13598035 5.452e-41 -0.089987606 -0.057202525 -0.19209212 -0.061752994 -0.03650953 -0.24643144
0.17722385 0.08915072 -0.03556298 0.05686881 0.1343536 -0.04327088 0.009428374 -0.039328344
0.11194591 -0.041704815 0.26569352 -0.05127772 0.12797022 0.45831147 -0.101286456 -0.0697752
0.11539752 -0.47948778 -0.11256036 0.13720001 -0.37876308 0.10157751 0.1196836 -0.14747615
-0.21173854 4.977e-41 -0.015604747 0.02992072 -0.14761513 -0.017719429 0.14271547 -0.3681789
-0.15616328 -0.006748255 -0.02841539 0.121213034 0.1345295 -0.3084328 0.14207853 -0.41307274
-0.1378939 0.02997275 0.20398778 0.071568094 -0.06884148 0.087521024 -0.028683562 -0.20290747
-0.033322383 -0.00875533 0.1325762 -0.26226383 0.4944132 0.009739652 0.20912917 -0.07403277
-0.3200147 0.0003049316 0.026200049 0.2143765 0.034375794 -0.056028064 0.07501629 -0.08414387
-0.07628828 0.24247515 0.42486614 0.1471745 0.1708352 -0.05203683 -0.19782358 1.0504738e-11
0.009508309 -0.17044772 -0.034855776 -0.061877567 0.08581941 -0.3752025 -0.21783419 -0.028337331
0.0075381305 -0.078314446 0.08772988 -0.30027193 0.15354379 0.15596741 -0.7780136 -0.0430211
00000000: 3b9a 1bbd 5373 f03d 05b1 3c3e 7ad9 8f3e
00000010: 300d fe3c 7890 0080 0638 963e 223d 1fbe
00000020: 32ce 7abe b3a7 eb3c b7fb ee3d 3073 3abe
00000030: 6abd 48be 841d 39bc 98d8 693e cb0e 0c3d
00000040: 3780 e93c 8974 8f3e a4b2 46bf c946 1f3d
00000050: e839 f53c 4443 bbbd 21da 08bd ff7a ff3d
00000060: 54c0 4d3e 334b 5e3d 6d5a be3d e5d7 ec3c
00000070: b097 f8bd 7917 4a3e 2189 0080 c079 2e3f
00000080: 053d 463c f4d9 4b3b 2830 eb3b d52d 913d
00000090: 9997 ae3c fc6f 68bc 2edf 53bd ec18 873e
000000a0: 536a 123e 58f2 22bc e89f ccbc 67b7 93bd
000000b0: 109a c8bc 9386 1d3f 2fee 8d3e 6900 cc3a
000000c0: 9486 013e 9fd3 463d f962 483d 678a d53d
000000d0: b49c 0c3e 9a81 103f 7545 d23c 7edb 03bc
000000e0: 654c 003f fcd2 25bd 36ee 993d 13d3 0bbd
000000f0: 1dc7 d3bb 6c67 103e 0e6d 613e 17dd 523d
00000100: 6b60 9739 f73b 1db2 8eb1 09bd 5de8 7b3e
00000110: 92bf 44bd 40c6 b5be 58a3 abbd 5e31 a6bc
00000120: 9c86 bb3e ee1e dbbd 683e b9be 86b2 bd3d
00000130: 2373 c6bc e2bd c43e 184a 923d 0b38 a1bd
00000140: 790a 1cbf 9adb 88bc b5dc e93d a24e b7bd
00000150: 6a84 103e a001 3abf eae7 033f 8fcf 543d
00000160: 948a 003e 498c 6f3e e205 0cbf 93f7 1c3d
00000170: 90f2 01bd 8eb8 a7be 668b f13d 3278 c33d
00000180: 1fb2 983c 3105 5ebe b4f2 2f3f f819 cdbd
00000190: fabc 703d 5bdb 75bd f7e1 a6be 714b a23d
000001a0: d299 08be 5288 233e 64b5 2a3e 4208 1b3e
000001b0: b29b a13d e806 843b 14aa d53c 558e 0080
000001c0: 295a ad3e d0ad 113c f262 853d 3652 c5bd
000001d0: 3751 203e a6ab 3dbe 1365 da3c be75 05be
000001e0: 9ad3 cb3e e57a f53b 518a 603e 4d28 47bc
000001f0: b0ce 223e 184d 8ebd 4681 323d f67c ef3d
00000200: 3e5b 06be 7d1b 453e 1229 5a3d e78f 353e
00000210: 46d2 823e 9b89 0000 5541 45be 48dd 183e
00000220: 9d65 3ebd a61f 47be 87b5 713d b50a 15be
00000230: 90e5 91ba 4f33 1e3e 3345 3abe a3e7 4e3e
00000240: 64b3 26bf 0e90 593b 63b2 513e 6867 0cbe
00000250: c61f b23e a9ed 393e 0411 17be 028d 2a3b
00000260: 9365 dd3d d771 b1bd 80e3 1a3e 4a76 9abd
00000270: 3534 053e 989e 393e e788 0000 b76a 713e
00000280: 6f3e 0bbe fb97 0000 6c4b b8bd 324d 6abd
00000290: ccb3 44be b5f0 7cbd 048b 15bd 8658 7cbe
000002a0: 2b7a 353e a794 b63d 7daa 11bd 45ef 683d
000002b0: fd93 093e ce3c 31bd 7779 1a3c c216 21bd
000002c0: e643 e53d abd2 2abd fb08 883e 9608 52bd
000002d0: a00a 033e cda7 ea3e 466f cfbd 4de6 8ebd
000002e0: 8955 ec3d 6c7f f5be 0c86 e6bd 297e 0c3e
000002f0: 3ced c1be df07 d03d ad1c f53d fd03 17be
00000300: fdd1 58be bd8a 0000 0eab 7fbc 4c1c f53c
00000310: 6c28 17be 5628 91bc 0124 123e f281 bcbe
00000320: 44e9 1fbe 7720 ddbb 64c7 e8bc 8a3e f83d
00000330: 1ac2 093e e7ea 9dbe 097d 113e 457e d3be
00000340: 0f34 0dbe 6a89 f53c 2ce2 503e 4b92 923d
00000350: c3fc 8cbd 393e b33d caf9 eabc fac6 4fbe
00000360: 0d7d 08bd 8472 0fbc 0ec2 073e 7247 86be
00000370: ba23 fd3e 1093 1f3c f525 563e 7e9e 97bd
00000380: f7d8 a3be 3adf 9f39 7ca1 d63c 8385 5b3e
00000390: a2cd 0c3d af7d 65bd 24a2 993d 9f53 acbd
000003a0: 083d 9cbd 684b 783e 0e88 d93e eab4 163e
000003b0: 6cef 2e3e 9224 55bd 4492 4abe 22cd 382d
000003c0: bdc8 1b3c d989 2ebe eec4 0ebd 5573 7dbd
000003d0: 16c2 af3d 8b1a c0be ed0f 5fbe b123 e8bc
000003e0: 6c02 f73b 5363 a0bd b9ab b33d 3ebd 99be
000003f0: 953a 1d3e ecb5 1f3e e62b 47bf e536 30bd

act_conv1.bias f4 [4]
-0.06614483 0.16308662 0.38792938 -0.005480602
00000000: f176 87bd 2e00 273e ae9e c63e 9f96 b3bb

act_fc1.weight f4 [36, 144]
0.12332274 0.00052416994 0.0076324604 0.14145859 0.061775792 0.24087012 0.21132937 0.04325258
0.036600996 0.043699585 -0.014364399 0.14494938 -0.09824641 -0.031401485 0.12621717 0.10516391
0.05443838 0.08517906 -0.43056983 0.14854632 -0.010806855 -0.09242611 0.012188103 0.19192524
-0.08240052 0.32375032 -0.21220683 0.21308985 0.009961577 0.10619523 0.91125613 0.14203677
0.18559672 0.006365347 -0.03867587 0.0376586 -0.039769396 -0.0513222 -0.12333014 -0.21235332
0.07326941 -0.059904184 -0.10865993 0.18379602 -0.030134596 0.17803459 0.08054754 0.015489019
0.10568838 -0.17065735 0.017126948 0.04805742 -0.15571064 -0.1490141 -0.17423882 -0.21918854
-0.05921332 0.22175105 -0.09292409 0.0011060281 -0.029221205 -0.15750322 -0.22948419 0.042636536
0.16852756 -0.049175438 -0.042381193 0.36570358 0.002715492 -0.025397982 -0.008198076 -0.13350223
-0.03716716 0.04614917 0.04235156 -0.08182668 0.035792205 -0.24247026 -0.08594859 -0.028345378
-0.08818743 0.019512234 -0.07917482 -0.2280839 -0.1316301 0.006693662 0.1455224 -0.07833274
-0.07025111 -0.09335989 -0.034372773 0.042903848 -0.021030363 -0.055815246 -0.08139333 -0.13643712
0.1128974 0.019507073 -0.05426675 -0.08884815 -0.02658574 -0.26079336 0.041473206 0.043498408
0.13789101 -0.04230754 -0.05193837 0.119309224 5.324471e-37 -2.385568e-24 -2.0974185e-23 -6.147892e-23
-2.9604446e-25 -3.559151e-39 -4.1056396e-20 -6.0847094e-16 -1.5740356e-14 -2.4318705e-17 -2.1334961e-21 -1.12203746e-29
-7.647873e-18 -4.5876985e-13 -2.3684516e-13 -2.8748024e-14 -7.615749e-17 -3.1434497e-21 -7.036068e-17 -9.466986e-13
-1.9345489e-12 -1.2667723e-13 -1.8310869e-17 -1.9788906e-23 -1.5492438e-17 -6.998413e-15 -6.157277e-15 -3.2635303e-15
-1.287002e-19 -2.1070943e-26 -1.7463136e-26 -8.93417e-18 -1.8959651e-17 -2.4659685e-20 -1.381163e-23 1.2344e-41
-0.035375275 0.011902167 -0.112782046 -0.069121554 0.03187342 -0.0005591673 0.027992526 0.14836788
0.060860287 -0.058651824 0.18375625 0.058713824 0.09346747 -0.05556208 -0.051002506 0.015172579
0.17862491 -0.012235753 0.038892325 -0.22344619 0.14282864 0.023136979 -0.230533 0.23784702
-0.16307141 0.021750757 0.19358371 -0.25244603 0.14283809 -0.15696722 0.0938602 0.4798251
0.27952793 0.09550238 -0.03999386 -0.023379123 -0.035752982 -0.20167784 -0.13022399 0.13147052
0.04380142 -0.0048762746 0.05624629 -0.17445327 -0.09227705 0.04466625 0.10563352 0.18386774
-0.18162872 0.043633442 0.019165095 -0.010779453 0.04833 0.0567846 -0.071300775 0.13531491
0.042459518 -0.07625961 0.26316342 -0.02540457 0.24619474 -0.17829959 -0.30916613 0.031830832
0.13706546 0.029790917 0.20952886 -0.009116857 0.0076928455 0.15036373 0.055721335 0.028678983
-0.01616332 0.001474132 -0.0045573483 -0.037336238 -0.05220455 -0.03674011 0.030083716 0.015125733
-0.043861248 -0.021992963 -0.0111923115 -0.19377 -0.023077056 -0.042525075 0.068845965 0.1225595
-0.038756024 0.007678451 0.03219367 0.053845376 0.03537614 -0.059011374 0.007317976 -0.059246574
0.02795494 0.0396858 0.060663212 -0.072878115 0.0043144524 0.036604717 -0.93974495 -0.00092397595
0.08373493 0.07749745 -0.047292367 0.00026579385 4.9191e-41 4.9373e-41 4.9123e-41 4.9057e-41
00000000: a290 fc3d 7368 093a b819 fa3b 85da 103e
00000010: 9d08 7d3d a8a6 763e ba66 583e 9e29 313d
00000020: edea 153d 56fe 323d a858 6bbc 9c6d 143e
00000030: 6a35 c9bd d89e 00bd 133f 013e 2d60 d73d
00000040: c7fa 5e3d 5c72 ae3d a673 dcbe 871c 183e
00000050: 3c0f 31bc e649 bdbd 9cb0 473c 0d88 443e
00000060: 9bc1 a8bd 9ac2 a53e bf4c 59be 3a34 5a3e
00000070: e235 233c e27c d93d 1548 693f 1672 113e
00000080: 110d 3e3e 6794 d03b 976a 1ebd e73f 1a3d
00000090: 3ce5 22bd 3a37 52bd 8394 fcbd 2673 59be
000000a0: 460e 963d 175e 75bd 1989 debd 0635 3c3e
000000b0: d4dc f6bc b34e 363e 1cf6 a43d a8c5 7d3c
000000c0: 2673 d83d cdc0 2ebe d04d 8c3c dbd7 443d
000000d0: 9c72 1fbe 2797 18be a96b 32be f672 60be
000000e0: ab89 72bd b512 633e fc4e bebd 25f8 903a
000000f0: 4f61 efbc 8648 21be e7fd 6abe a6a3 2e3d
00000100: 7d92 2c3e 2f6c 49bd e797 2dbd 803d bb3e
00000110: 65f6 313b 6e0f d0bc 3951 06bc cfb4 08be
00000120: 983c 18bd e906 3d3d d478 2d3d bf94 a7bd
00000130: d99a 123d 204a 78be d005 b0bd 9134 e8bc
00000140: 9c9b b4bd 1fd8 9f3c 6826 a2bd d38e 69be
00000150: 0aca 06be 8256 db3b d303 153e ea6c a0bd
00000160: d0df 8fbd 7833 bfbd 77ca 0cbd f2bb 2f3d
00000170: de47 acbc 879e 64bd 8cb1 a6bd 2cb6 0bbe
00000180: c136 e73d 4ccd 9f3c d046 5ebd 05f6 b5bd
00000190: 56ca d9bc b586 85be cfdf 293d 632b 323d
000001a0: 4d33 0d3e ac4a 2dbd 54bd 54bd 6558 f43d
000001b0: af2e 3503 0b93 3898 91d9 ca99 9ca5 949a
000001c0: 1e3e b796 77c1 2680 23e2 419f 3b61 2fa6
000001d0: cac6 8da8 eb4c e0a3 d133 219d 8493 638f
000001e0: 0f14 0da3 da21 01ab fc54 85aa 3778 01a9
000001f0: 739b afa4 2983 6d9d 9d3d a2a4 693c 85ab
00000200: bc21 08ac 3aa0 0eaa 51e3 a8a3 f562 bf99
00000210: 7ce4 8ea3 f724 fca7 dbd6 dda7 8229 6ba7
00000220: 40f1 17a0 30ad d094 4ff2 ac94 6dce 24a3
00000230: 36df aea3 76e7 e89e f193 8599 6922 0000
00000240: aae5 10bd 4f01 433c 46fa e6bd 9a8f 8dbd
00000250: b48d 023d 1595 12ba 9550 e53c c0ed 173e
00000260: a348 793d e53c 70bd 992a 3c3e e87d 703d
00000270: df6b bf3d 1095 63bd 01e8 50bd 6996 783c
00000280: 73e9 363e 7878 48bc 8f4d 1f3d 14cf 64be
00000290: ac41 123e c389 bd3c d810 6cbe 2b8e 733e
000002a0: 31fc 26be a52e b23c cf3a 463e 9b40 81be
000002b0: 2644 123e 04bc 20be c739 c03d a3ab f53e
000002c0: 491e 8f3e c096 c33d 9ad0 23bd 9385 bfbc
000002d0: b871 12bd a384 4ebe 7059 05be 35a0 063e
000002e0: 1e69 333d 28c9 9fbb 8362 663d e1a3 32be
000002f0: c0fb bcbd f5f3 363d 6356 d83d d347 3c3e
00000300: e1fc 39be fbb8 323d 1e00 9d3c 4e9c 30bc
00000310: aef5 453d f896 683d 2406 92bd fe8f 0a3e
00000320: 08ea 2d3d 002e 9cbd 5bbd 863e 3f1d d0bc
00000330: 791a 7c3e 2b94 36be 064b 9ebe 0c61 023d
00000340: e35a 0c3e 150c f43c bc8e 563e df5e 15bc
00000350: 4414 fc3b f3f8 193e 0e3c 643d 30f0 ea3c
00000360: f068 84bc a937 c13a cf55 95bb e2ed 18bd
00000370: 70d4 55bd cc7c 16bd 2072 f63c ecd1 773c
00000380: daa7 33bd 962a b4bc f55f 37bc a56b 46be
00000390: 180c bdbc c62e 2ebd 1dff 8c3d 7a00 fb3d
000003a0: a3be 1ebd 849b fb3b 82dd 033d f88c 5c3d
000003b0: 92e6 103d e9b5 71bd a2cb ef3b 89ac 72bd
000003c0: c201 e53c 948d 223d fd79 783d 1f41 95bd
000003d0: 4060 8d3b d4ee 153d 2093 70bf fa36 72ba
000003e0: 387d ab3d fcb6 9e3d a4b5 41bd 3f5a 8b39
000003f0: 2089 0000 a289 0000 ef88 0000 c088 0000

act_fc1.bias f4 [36]
-0.22625841 -0.14538991 -0.014986305 -0.13640583 -0.09015792 -0.030821187 -0.17469811 0.02408722
0.0328678 0.019576108 0.013671692 -0.05006256 -0.17637797 0.0022461643 0.19527479 0.23632406
0.07307899 0.0071458556 -0.17451243 0.04234906 0.21553664 0.12128567 0.07552781 -0.08105349
-0.24892296 0.036640733 0.13190828 0.052417103 0.032499015 0.030906804 -0.16212612 -0.1047832
-0.13599162 -0.12787665 -0.100778714 -0.095121875
00000000: 49b0 67be 18e1 14be 1e89 75bc f8ad 0bbe
00000010: b7a4 b8bd b77c fcbc 10e4 32be 9052 c53c
00000020: 63a0 063d 135e a03c 3cff 5f3c 660e 4dbd
00000030: 6d9c 34be 6234 133b 1df6 473e effe 713e
00000040: 70aa 953d c827 ea3b 63b3 32be 3576 2d3d
00000050: a3b5 5c3e 9f64 f83d 53ae 9a3d 5fff a5bd
00000060: a9e5 7ebe 9814 163d f712 073e 51b3 563d
00000070: b01d 053d 4430 fd3c 6404 26be 9398 d6bd
00000080: 6341 0bbe 19f2 02be 1265 cebd 42cf c2bd

val_conv1.weight f4 [2, 128, 1, 1]
-0.24888577 -0.53305084 0.14164166 -0.0022688746 0.05043352 -2.2562201e-06 0.04990209 -0.0075076264
0.4282844 -0.008518979 0.06266184 -0.29645655 0.38231665 -0.71231824 0.107110165 -0.54267526
-0.0037970615 0.28012416 -0.2756617 -0.5508042 0.09974625 -0.03154258 -0.020625534 -0.52104115
0.24313119 0.000510487 -0.34167597 -0.0044982405 0.29139557 0.20728013 0.00024890748 0.19620307
0.1980473 0.001034912 0.046082634 -0.4516589 -0.00908803 0.07669603 0.055388834 -0.6247932
-0.0887158 0.3589188 0.16534667 -0.5921251 0.0795999 -0.15749511 -0.10495482 0.033609238
-0.7263285 0.3132748 -0.35174447 0.105431914 0.021430995 0.14462063 0.3485984 -0.2960174
0.16994028 -0.01661353 0.22572413 0.017585015 0.021407034 -0.37910146 0.019517493 -0.0063756285
0.28901157 5.9980703e-06 0.06794314 0.020985164 -0.03065349 -0.063305765 -0.53249305 0.02355317
0.18870948 0.23489091 -0.28742793 0.16162612 0.37411502 -0.21786411 -0.13758153 0.049365267
-0.14817463 0.28794974 -0.087380335 -0.38392115 -0.062078204 -0.25728464 0.10005784 0.32408962
-0.26742315 -0.041298315 -0.16346276 -0.56347394 -0.07528595 0.044275057 0.0644114 -0.012541548
-0.07743619 -0.28621197 -0.1288468 0.1349014 0.020405184 -0.00021254043 0.32509065 -0.16231453
0.043442786 0.058273926 -0.11079489 0.2724403 -0.14506866 0.052008677 -0.43708542 -4.3619082e-05
-0.15639748 0.16983937 -0.0697489 0.070183255 -0.42313117 0.14706795 0.2737148 -0.5262479
-0.180474 -0.036903314 -0.24090517 -0.20844603 0.030342443 -0.12665586 -0.04135697 0.13547084
0.5041434 -0.013447529 0.12766919 -0.15571506 0.10059545 -7.396526e-07 0.327196 -0.24508843
0.2803378 -0.0053518917 0.035264872 -0.024557447 0.18525901 -0.45507315 -0.14928226 -0.13614064
-0.019191565 0.30769014 -0.12683891 0.18882109 0.112196915 -0.0070071137 0.09210478 0.13032702
0.11173674 -0.011495574 0.20479599 -0.0050935536 0.12948804 0.35428798 5.545267e-05 0.1513511
0.066722594 -0.0025747537 0.0935719 0.4632101 -0.004633603 -0.2780915 -0.22971544 0.119221814
-0.32968605 -0.11284681 -0.052854992 0.071832396 -0.3391808 -0.113711946 0.09102091 -0.29473662
-0.23732498 0.015275538 0.007843105 -0.25208023 -0.008711597 0.2695784 -0.24415751 -0.28124797
-0.16104218 0.06703827 0.23482212 0.24777165 0.016407518 0.042293165 0.01066846 -0.011283523
0.21385291 1.0211838e-05 0.0106821675 0.124889754 -0.23066258 0.50556195 0.18032034 -0.0076981774
-0.23082644 0.14974734 -0.26158515 -0.28311822 0.47397035 0.07709283 0.106471635 -0.12883724
0.14928335 -0.49704233 0.36933237 -0.23095842 0.2909107 0.095416516 0.03534614 0.18868755
0.101866595 -0.19585809 0.22338738 -0.30270535 -0.44966415 -0.31761682 -0.26317346 -0.053820323
-0.2990682 0.40445897 0.15544899 0.45690367 -0.0044972305 0.043971457 0.115564965 0.018917447
0.41570485 -0.38675556 -0.10050365 0.25869414 -0.260174 -0.01942234 -0.5353464 -0.00031393502
-0.41856447 0.06762055 0.10913938 0.022970287 -0.026713379 0.21707132 0.04099897 0.009111975
-0.104986526 -0.5175994 -0.066379786 0.107804276 0.1166897 -0.4182357 -0.07560003 0.30429447
00000000: e9db 7ebe 0576 08bf 830a 113e 66b1 14bb
00000010: 6193 4e3d 9169 17b6 2266 4c3d 8902 f6bb
00000020: 1848 db3e 3093 0bbc da54 803d 27c9 97be
00000030: 02bf c33e 7d5a 36bf 935c db3d c4ec 0abf
00000040: 1fd8 78bb 6f6c 8f3e 8823 8dbe 8101 0dbf
00000050: c347 cc3d cb32 01bd e1f6 a8bc f462 05bf
00000060: 62f7 783e 34d2 053a 27f0 aebe fa65 93bb
00000070: cd31 953e 3e41 543e cc7f 8239 75e9 483e
00000080: e9cc 4a3e e2a5 873a 25c1 3c3d d63f e7be
00000090: f6e5 14bc cf12 9d3d 67df 623d 72f2 1fbf
000000a0: a1b0 b5bd 34c4 b73e a350 293e 8395 17bf
000000b0: 4605 a33d 6646 21be 8df2 d6bd d7a9 093d
000000c0: aaf0 39bf 8e65 a03e da17 b4be b0ec d73d
000000d0: 0e90 af3c 6e17 143e 7d7b b23e 988f 97be
000000e0: d304 2e3e 1919 88bc 3a24 673e 730e 903c
000000f0: ce5d af3c 9619 c2be 26e3 9f3c a6ea d0bb
00000100: 53f9 933e 0843 c936 c625 8b3d 14e9 ab3c
00000110: 071d fbbc 74a6 81bd 7751 08bf 94f2 c03c
00000120: 0f3d 413e 3e87 703e c129 93be 5181 253e
00000130: 018c bf3e c517 5fbe 2ce2 0cbe 3c33 4a3d
00000140: 17bb 17be 266e 933e 76f4 b2bd 5091 c4be
00000150: b745 7ebd d0ba 83be 20eb cc3d 13ef a53e
00000160: b0eb 88be 6c28 29bd c862 27be d43f 10bf
00000170: 852f 9abd c359 353d 20ea 833d 117b 4dbc
00000180: dd96 9ebd 608a 92be 6af0 03be 9823 0a3e
00000190: c628 a73c 63dd 5eb9 4872 a63e c835 26be
000001a0: 10f1 313d a4b0 6e3d 6ee8 e2bd 4c7d 8b3e
000001b0: e18c 14be 0d07 553d a9c9 dfbe a2f3 36b8
000001c0: a926 20be 5fea 2d3e 83d8 8ebd 3dbc 8f3d
000001d0: a6a4 d8be fb98 163e 5924 8c3e 2fb8 06bf
000001e0: 2dce 38be ee27 17bd d8af 76be e072 55be
000001f0: b790 f83c 13b2 01be ed65 29bd deb8 0a3e
00000200: 8b0f 013f 0653 5cbc b6bb 023e c573 1fbe
00000210: fd04 ce3d 8a8c 46b5 3c86 a73e 76f8 7abe
00000220: 7088 8f3e ec5e afbb e671 103d b32c c9bc
00000230: 8ab4 3d3e 59ff e8be 73dd 18be 7468 0bbe
00000240: a137 9dbc 9089 9d3e 0fe2 01be 515a 413e
00000250: 7fc7 e53d ee9b e5bb 6ea1 bc3d 7274 053e
00000260: 3bd6 e43d ef57 3cbc 0ab6 513e d3e7 a6bb
00000270: 8398 043e 3c65 b53e da95 6838 c8fb 1a3e
00000280: dba5 883d 33bd 28bb a0a2 bf3d e029 ed3e
00000290: 7bd5 97bb 0262 8ebe 863a 6bbe 912a f43d
000002a0: 9ccc a8be 3a1c e7bd 7a7e 58bd dd1c 933d
000002b0: 1ba9 adbe cfe1 e8bd 2c69 ba3d b8e7 96be
000002c0: 5205 73be 4046 7a3c 5e80 003c a910 81be
000002d0: 16bb 0ebc 2e06 8a3e 6d04 7abe bcff 8fbe
000002e0: 3ee8 24be 5c4b 893d 3675 703e dab7 7d3e
000002f0: 0f69 863c 993b 2d3d c4ca 2e3c 87de 38bc
00000300: 42fc 5a3e 8353 2b37 4204 2f3c 33c6 ff3d
00000310: d032 6cbe 826c 013f e5a5 383e fe40 fcbb
00000320: c45d 6cbe 5e57 193e 7dee 85be dff4 90be
00000330: 3eac f23e d8e2 9d3d cd0d da3d e9ed 03be
00000340: bcdd 183e 557c febe 2219 bd3e 5d80 6cbe
00000350: 3ff2 943e bc69 c33d 1dc7 103d 4f37 413e
00000360: 6f9f d03d 068f 48be a9bf 643e 32fc 9abe
00000370: 613a e6be ac9e a2be acbe 86be b372 5cbd
00000380: 781f 99be 3f15 cf3e 052e 1f3e 47ef e93e
00000390: 815d 93bb 6a1b 343d 53ad ec3d c3f8 9a3c
000003a0: 44d7 d43e d304 c6be dcd4 cdbd 8f73 843e
000003b0: 8735 85be 991b 9fbc 760c 09bf a597 a4b9
000003c0: 154e d6be a57c 8a3d 7884 df3d 2f2c bc3c
000003d0: 04d6 dabc f247 5e3e 89ee 273d 654a 153c
000003e0: 2d03 d7bd 6581 04bf 20f2 87bd 7dc8 dc3d
000003f0: 02fb ee3d fd22 d6be 30d4 9abd 7ccc 9b3e

val_conv1.bias f4 [2]
0.05916619 -0.02614128
00000000: 3f58 723d 3d26 d6bc
