best_policy_664_2000.model (torch, 422646 bytes, 15 tensors)

conv1.weight f4 [32, 4, 3, 3]
-0.03825287 -0.6773138 0.3471951 0.2623822 0.2475646 0.20305663 0.006614516 0.046043005
-0.37575284 -0.2265822 -0.17171513 -0.042130172 0.14991032 -0.3026279 -0.19525312 -0.33829218
-0.5639061 -0.584132 -0.18634221 0.048854135 -0.21132743 0.06984756 0.25219944 -0.009223267
-0.04721329 -0.15002704 -0.10462154 0.06262384 0.1424132 -0.13257779 0.14685504 -0.06107478
0.09217427 -0.12247123 -0.10958918 -0.20406233 -0.41688785 0.3137042 0.4659846 -0.26579577
0.1549984 -0.3921689 -0.21728502 0.38975823 -0.14799862 0.14665547 -0.41728264 -0.1722252
0.15740123 0.41933677 -0.41958803 -0.04442494 0.015193357 0.23410183 0.16865666 0.1543891
0.045925476 0.23358762 0.035794493 0.018574124 -0.0030099968 0.14456007 -0.20945121 -0.099632666
-0.09979077 -0.1433033 0.14899276 0.12064965 0.04864911 0.033424407 -0.1751818 0.062302355
0.07528328 -0.80046797 0.43125334 -0.21491565 0.2920238 -0.1867455 -0.008731533 0.2247608
-0.20263512 -0.11964713 0.087370716 0.33159435 0.07290266 -0.40015575 -0.1582006 -0.473374
-0.2551558 -0.1950887 0.22282362 -0.0029091327 0.11670471 -0.23780324 -0.19483684 0.007839929
-0.20224436 -0.12582421 0.044779256 -0.05582537 -0.03772883 0.038270205 0.06559252 -0.08269899
-0.014011372 0.06197291 -0.15144639 0.07141587 0.40375695 -0.039861098 0.060696274 0.12159649
-0.1020911 -0.1599622 0.3446669 -0.35410947 0.23100312 -0.321597 0.29983455 0.34409913
-0.34148577 0.16861302 0.2879263 0.025156764 0.29383776 -0.44109318 0.121623464 -0.08193778
-0.06754574 0.18764788 -0.12814356 0.09143682 0.0010681126 -0.3006223 -0.0035394586 0.050859246
0.042499498 0.030868687 -0.14190544 -0.25226936 -0.10469478 0.00819148 -0.07305309 0.012675936
0.46862853 -0.13032305 0.04138294 -0.09055797 0.13301994 -0.013948938 0.32281363 0.21245848
-0.7172357 -0.022680873 0.20318718 0.1611083 0.25828466 0.41159216 -0.44628906 -0.016116843
0.42710817 0.10675327 -0.5851555 -0.12649599 -0.18150435 -0.22585545 -0.03312403 0.20859943
-0.053918388 -0.06028321 -0.108351834 0.005502457 0.09967579 0.0085876975 -0.15900521 0.07000623
-0.11228193 -0.084970884 -0.108890325 -0.16843374 0.39369643 0.15985869 0.384522 0.2260272
-0.29347056 -0.26399344 -0.24526846 0.5971617 -0.13855459 0.22615923 -0.0601511 -0.13555187
0.15884677 -0.25114036 -0.33964828 0.067737184 0.05309499 -0.051686022 -0.30210906 0.10198644
0.2405 -0.028523518 0.17360073 0.0101128975 -0.108653106 -0.058847398 0.15699321 -0.05648363
-0.13982287 -0.23362687 -0.27636132 -0.024495874 -0.09367337 -0.26414937 0.101728864 -0.098197795
-0.38745108 -0.079879045 0.38756415 -0.16334075 0.15183246 0.3634883 0.2297306 -0.03401142
0.34780127 0.16480757 0.23098159 -0.3836893 -0.23200628 0.07065123 -0.22665453 0.32355145
0.24066645 0.20045269 -0.03501112 0.13549502 -0.15491821 -0.12790759 0.16174434 0.05599645
-0.08426154 0.0752243 -0.04844121 0.20559773 -0.069410734 -0.0075122984 0.058593705 -0.16805042
0.07159536 0.16310014 -0.071453996 -0.13019134 0.37902424 -0.50533235 -0.6207919 -0.08954116
00000000: 0baf 1cbd 7064 2dbf 8ec3 b13e f656 863e
00000010: 9381 7d3e 14ee 4f3e 95be d83b 9797 3c3d
00000020: ad62 c0be 2a05 68be 17d6 2fbe b090 2cbd
00000030: 1782 193e 0bf2 9abe 6ff0 47be a234 adbe
00000040: 265c 10bf ad89 15bf 7ed0 3ebe 461b 483d
00000050: 3866 58be 3d0c 8f3d 4920 813e 301d 17bc
00000060: b962 41bd b0a0 19be d143 d6bd ee40 803d
00000070: c4d4 113e 79c2 07be 2b61 163e 8c29 7abd
00000080: ddc5 bc3d 32d2 fabd 4b70 e0bd b7f5 50be
00000090: 5372 d5be d69d a03e 8995 ee3e 6216 88be
000000a0: e7b7 1e3e 5dca c8be f77f 5ebe 648e c73e
000000b0: f38c 17be da2c 163e 12a6 d5be ce5b 30be
000000c0: ca2d 213e 4fb3 d63e 3ed4 d6be edf6 35bd
000000d0: 8fed 783c 64b8 6f3e 55b4 2c3e 2d18 1e3e
000000e0: 5a1c 3c3d 9831 6f3e 3f9d 123d c328 983c
000000f0: 5e43 45bb 8e07 143e 617a 56be 360c ccbd
00000100: 1a5f ccbd 1abe 12be 8f91 183e 2a17 f73d
00000110: 4a44 473d 08e8 083d dc62 33be c130 7f3d
00000120: 1f2e 9a3d 78eb 4cbf 3dcd dc3e d912 5cbe
00000130: 2584 953e 363a 3fbe b40e 0fbc b227 663e
00000140: 957f 4fbe 8e09 f5bd 6bef b23d bcc6 a93e
00000150: fd4d 953d 37e1 ccbe 57ff 21be 145e f2be
00000160: c8a3 82be 55c5 47be e02b 643e 26a7 3ebb
00000170: e102 ef3d b182 73be 4f83 47be 0c73 003c
00000180: 2519 4fbe 10d8 00be 746a 373d 25a9 64bd
00000190: 8c89 1abd 38c1 1c3d 5f55 863d 175e a9bd
000001a0: f48f 65bc 4ed7 7d3d c314 1bbe 7c42 923d
000001b0: 3bb9 ce3e 6445 23bd a89c 783d 9507 f93d
000001c0: 2315 d1bd 22cd 23be 2e78 b03e d64d b5be
000001d0: 158c 6c3e 5da8 a4be ea83 993e c32d b03e
000001e0: 39d7 aebe e4a8 2c3e 136b 933e 8f15 ce3c
000001f0: e771 963e f7d6 e1be b915 f93d ffce a7bd
00000200: 6c55 8abd c426 403e 1138 03be 3a43 bb3d
00000210: e9ff 8b3a 2beb 99be 43f6 67bb c951 503d
00000220: f413 2e3d 54e0 fc3c a94f 11be 7329 81be
00000230: 386a d6bd 8f35 063c dc9c 95bd bbae 4f3c
00000240: 14f0 ef3e 6873 05be 2881 293d 7576 b9bd
00000250: 6136 083e 168a 64bc d447 a53e b78e 593e
00000260: c29c 37bf 3dcd b9bc 4d10 503e 93f9 243e
00000270: e33d 843e 35bc d23e 0080 e4be 7807 84bc
00000280: ecad da3e 75a1 da3d c0cc 15bf 2a88 01be
00000290: 47dc 39be a746 67be 10ad 07bd 179b 553e
000002a0: 87d9 5cbd 87eb 76bd 91e7 ddbd f44d b43b
000002b0: d222 cc3d 6ab3 0c3c 43d2 22be 6d5f 8f3d
000002c0: 12f4 e5bd 3705 aebd e401 dfbd e579 2cbe
000002d0: 9492 c93e ffb1 233e 11e0 c43e ad73 673e
000002e0: c641 96be 262a 87be a827 7bbe 97df 183f
000002f0: 41e1 0dbe 4996 673e 0061 76bd 1cce 0abe
00000300: baa8 223e 7895 80be 61e6 adbe cbb9 8a3d
00000310: 227a 593d b9b4 53bd 0aae 9abe 44de d03d
00000320: a245 763e 27aa e9bc 64c4 313e 91b0 253c
00000330: 8585 debd f809 71bd d4c2 203e 615b 67bd
00000340: ba2d 0fbe e23b 6fbe 3b7f 8dbe 92ab c8bc
00000350: d3d7 bfbd 963e 87be 3957 d03d ed1b c9bd
00000360: fd5f c6be a097 a3bd cf6e c63e cc42 27be
00000370: f879 1b3e 231b ba3e 803e 6b3e 8f4f 0bbd
00000380: 0213 b23e 51c3 283e 7086 6c3e ed72 c4be
00000390: 0e93 6dbe 98b1 903d 2018 68be 89a8 a53e
000003a0: 4471 763e 7843 4d3e d267 0fbd 35bf 0a3e
000003b0: e1a2 1ebe 35fa 02be 4fa0 253e 895c 653d
000003c0: 5091 acbd 330f 9a3d 4a6a 46bd 3688 523e
000003d0: 3727 8ebd ba29 f6bb f4ff 6f3d 6915 2cbe
000003e0: 97a0 923d b903 273e 7956 92bd e150 05be
000003f0: 770f c23e 765d 01bf 38ec 1ebf 5b61 b7bd

conv1.bias f4 [32]
0.23937221 -0.004146631 0.15939629 0.016406287 -0.005318218 0.07061864 -0.08705053 0.011550296
0.17056288 -0.10450465 -0.06026059 0.15600769 -0.10971409 0.124640964 -0.04581936 -0.10178648
-0.27115488 0.043495994 -0.094313495 -0.075032435 -0.09858579 -0.34238356 0.05738684 -0.019985348
0.05845368 0.042554997 -0.07417131 0.12738633 0.088385746 -0.0713044 -0.15088268 0.0067319735
00000000: fd1d 753e 76e0 87bb c838 233e 7a66 863c
00000010: 7244 aebb 81a0 903d 8c47 b2bd 743d 3d3c
00000020: 09a8 2e3e 8906 d6bd cfd3 76bd 7bc0 1f3e
00000030: c8b1 e0bd c343 ff3d 15ad 3bbd 6e75 d0bd
00000040: d0d4 8abe db28 323d 6f27 c1bd 9baa 99bd
00000050: 59e7 c9bd e64c afbe 770e 6b3d 50b8 a3bc
00000060: 206d 6f3d 264e 2e3d 21e7 97bd 9071 023e
00000070: 9603 b53d 0b08 92bd fd80 1abe e397 dc3b

conv2.weight f4 [64, 32, 3, 3]
-0.045830175 -0.009474258 0.00037844962 -0.11553576 0.0018369069 -0.014567834 -0.32591897 -0.16094066
-0.070920646 -0.21851109 -0.050040387 0.13609484 0.07405188 -0.030170638 0.010697809 -0.14608616
-0.24894273 -0.36127707 -0.3008478 -0.038575582 0.02763694 -0.17511773 -0.012059408 -0.03495442
-0.2039971 0.09505355 -0.13118747 -0.096471734 0.18976846 0.07069465 -0.033906914 0.13170034
-0.098829575 0.050459217 -0.023898331 -0.11191379 0.010688329 0.123359345 0.11598228 -0.18117012
-0.016292814 0.054729402 0.31805575 0.37145144 0.028033717 -0.20213383 -0.088283986 -0.146916
-0.28639433 -0.08384146 0.085620604 -0.20039035 -0.092828006 -0.0829344 -0.05731912 -0.063635014
-0.025864886 -0.09692912 0.08952621 0.057535965 0.027372103 0.1174043 0.087106295 0.015616038
0.067741275 0.007028068 -0.007934267 0.006618831 -0.08322494 0.19193484 0.12502411 -0.22558664
0.0655244 0.015970664 -0.00022694441 -0.01212524 -0.1785781 -0.16651611 -0.18131353 0.10530425
-0.24476856 0.024529085 -0.14193892 0.18584716 -0.030199006 -0.07274505 -0.14084353 0.12893054
-0.33685333 -0.19156784 0.079117596 0.0036703802 0.18227193 0.1681965 0.027487384 0.029623143
0.26060262 -0.091846325 -0.09343863 0.0046932716 0.03253144 -0.011345905 0.12715471 -0.26015377
0.014122418 -0.13339609 0.08635308 -0.2657511 -0.047311317 0.11151308 -0.024013592 0.039127145
0.18477155 0.08687358 -0.20462616 -0.06490747 -0.07126528 -0.01352761 0.13078697 -0.024161844
-0.014201382 0.07932649 -0.29090464 -0.07099429 0.086564615 0.07935515 0.032104623 0.12031698
0.14843103 0.20293723 0.047122337 0.017922636 0.0447651 0.13157485 -0.100535 0.0943723
-0.09791889 -0.06959964 -0.0040035252 0.025229204 0.054771822 -0.22997843 -0.28475955 0.09990191
0.22966811 0.19122446 0.11154243 -0.076168135 -0.006001834 0.11088672 0.16071771 0.2661384
-0.11236203 -0.054733053 -0.019672483 -0.011358107 -0.05071765 0.007265979 -0.07312245 -0.05503267
0.008276726 0.10503793 -0.03251547 -0.091075 -0.121838816 0.06709432 -0.017824424 0.054992374
-0.047546417 0.16477878 -0.055938102 -0.07082753 -0.13459894 0.029080354 -0.025974447 0.12689087
0.21192813 -0.13197283 0.08881889 0.10286538 -0.10780277 0.066215985 0.043010116 0.096079655
0.05965348 0.12815683 -0.048630152 0.22925486 -0.023719072 0.18476826 0.12616478 0.08791034
0.29017323 -0.002547011 -0.06488176 -0.043880537 0.019322319 -0.12755933 0.025143415 0.10737869
0.13953365 0.117261425 0.04425928 0.026005132 0.00056257023 0.1399518 -0.13220151 -0.06504372
0.01122337 0.15648468 -0.045226544 0.12042479 -0.04813063 0.09833193 -0.02486598 -0.05576711
-0.052589927 -0.16028376 -0.03433022 -0.006079082 -0.18604724 0.099678405 -0.008038092 0.18921447
-0.19804934 0.33580035 -0.17549765 0.08479488 0.0028106635 0.2047784 -0.17437047 0.008777413
-0.036575485 -0.30355448 0.040051237 0.124829665 0.098350875 0.099177755 0.034811877 0.14429085
-0.20079646 0.039474852 0.058555905 0.04968239 0.27417034 0.20138195 -0.03985899 0.12899263
0.08309977 -0.13647567 0.11697761 0.09531501 0.014636752 0.075164855 0.058600932 -0.23733678
00000000: 6cb8 3bbd eb39 1bbc a66a c639 039e ecbd
00000010: 5ec4 f03a edad 6ebc dade a6be a1cd 24be
00000020: d83e 91bd 5fc1 5fbe 26f7 4cbd 725c 0b3e
00000030: 83a8 973d 6a28 f7bc dd45 2f3c 9c97 15be
00000040: d8ea 7ebe 4ff9 b8be b908 9abe 6e01 1ebd
00000050: dd66 e23c 1052 33be d394 45bc 5e2c 0fbd
00000060: 9ee4 50be 70ab c23d 0256 06be f992 c5bd
00000070: aa52 423e 5bc8 903d fae1 0abd 74dc 063e
00000080: 2967 cabd 53ae 4e3d 6fc6 c3bc 0f33 e5bd
00000090: 1a1e 2f3c d3a3 fc3d 1e88 ed3d a984 39be
000000a0: 8278 85bc f02b 603d 34d8 a23e e22e be3e
000000b0: f7a6 e53c 2cfc 4ebe 3cce b4bd 2671 16be
000000c0: 47a2 92be 12b5 abbd db59 af3d 2133 4dbe
000000d0: 9c1c bebd 83d9 a9bd 74c7 6abd 1353 82bd
000000e0: 99e2 d3bc c682 c6bd 8559 b73d d5aa 6b3d
000000f0: 763b e03c aa71 f03d c964 b23d 69da 7f3c
00000100: f0bb 8a3d b54b e63b bafe 01bc c7e2 d83b
00000110: d671 aabd 918a 443e 5206 003e 2f00 67be
00000120: a831 863d e9d4 823c edf7 6db9 f1a8 46bc
00000130: 2ddd 36be 3383 2abe 41aa 39be c1a9 d73d
00000140: 9ca4 7abe 38f1 c83c 7058 11be b84e 3e3e
00000150: e863 f7bc 5bfb 94bd 4939 10be 5e06 043e
00000160: 0a78 acbe 5c2a 44be 6808 a23d c38a 703b
00000170: 7ea5 3a3e b43b 2c3e 392d e13c 3cac f23c
00000180: b56d 853e ed19 bcbd c15c bfbd 04ca 993b
00000190: b03f 053d 2de4 39bc d834 023e e032 85be
000001a0: b761 673c fc98 08be e2d9 b03d 8710 88be
000001b0: 83c9 41bd f860 e43d 27b8 c4bc c943 203d
000001c0: c134 3d3e c7ea b13d 8589 51be 35ee 84bd
000001d0: 88f3 91bd e9a2 5dbc 05ed 053e 0fef c5bc
000001e0: eaac 68bc ed75 a23d 74f1 94be 7465 91bd
000001f0: ca48 b13d f484 a23d 2380 033d c068 f63d
00000200: 4efe 173e c7ce 4f3e 5a03 413d 7ed2 923c
00000210: 9c5b 373d 8fbb 063e 4be5 cdbd 4446 c13d
00000220: b389 c8bd 428a 8ebd 0130 83bb 7aad ce3c
00000230: 6b58 603d 777f 6bbe 01cc 91be 5f99 cc3d
00000240: 1e2e 6b3e 58d0 433e 5c70 e43d 0afe 9bbd
00000250: 08ab c4bb 9418 e33d 2f93 243e 4b43 883e
00000260: 101e e6bd c42f 60bd 3028 a1bc 5b17 3abc
00000270: 50bd 4fbd 7317 ee3b 39c1 95bd f069 61bd
00000280: 1b9b 073c 201e d73d f12e 05bd 8885 babd
00000290: a186 f9bd bf68 893d 8704 92bc af3f 613d
000002a0: 08c0 42bd c5bb 283e 5a1f 65bd 060e 91bd
000002b0: 4ed4 09be ec39 ee3c 5dc8 d4bc aeef 013e
000002c0: b003 593e e323 07be aee6 b53d 16ab d23d
000002d0: b3c7 dcbd 3f9c 873d 602b 303d 69c5 c43d
000002e0: 3557 743d 8b3b 033e 6930 47bd c9c1 6a3e
000002f0: 804e c2bc e433 3d3e 5731 013e 560a b43d
00000300: 9691 943e c1eb 26bb bae0 84bd 14bc 33bd
00000310: d749 9e3c ea9e 02be 90f9 cd3c 5ce9 db3d
00000320: e9e1 0e3e c226 f03d 3849 353d b708 d53c
00000330: 7379 133a 864f 0f3e d55f 07be a435 85bd
00000340: 3ae2 373c 853d 203e 783f 39bd 46a1 f63d
00000350: a024 45bd 4062 c93d bdb3 cbbc 0e6c 64bd
00000360: 8968 57bd 6d21 24be d89d 0cbd 0933 c7bb
00000370: 2b83 3ebe 3124 cc3d 34b2 03bc 70c1 413e
00000380: 72cd 4abe 06ee ab3e a8b5 33be f0a8 ad3d
00000390: 1c33 383b 6eb1 513e 2c8e 32be 23cf 0f3c
000003a0: 2dd0 15bd 7e6b 9bbe c40c 243d b2a6 ff3d
000003b0: 2f6c c93d b51d cb3d e696 0e3d fbc0 133e
000003c0: 969d 4dbe 62b0 213d 51d8 6f3d c37f 4b3d
000003d0: 0e60 8c3e 1237 4e3e 2e43 23bd a516 043e
000003e0: 3630 aa3d 47c0 0bbe f591 ef3d 8434 c33d
000003f0: fdce 6f3c 08f0 993d 8807 703d 6a08 73be

conv2.bias f4 [64]
-0.06743644 -0.06080716 0.007355238 -0.13408144 0.018069401 -0.06126616 -0.028955976 -0.11347661
0.010398451 0.02088321 -0.042045992 -0.019272655 -0.032859236 -0.0027945875 -0.03387793 0.06712921
-0.002991019 -0.010964983 -0.059105225 -0.027034543 -0.11378595 -0.043590747 0.04976675 -0.04936924
-0.066584535 -0.11281855 0.02703083 -0.13977702 -0.08893953 0.007450144 -0.08373058 0.038176842
-0.07657328 0.13914452 -0.0557884 -0.0039303647 -0.011860411 0.002672007 -0.09626814 -0.041271113
-0.014607444 -0.05479977 -0.04560335 -0.09000454 0.062377397 -0.05271978 0.09386764 -0.04513086
0.02978559 0.0080315275 -0.035084836 -0.01783025 0.050872605 -0.0007031208 0.04199536 -0.0056796074
0.14635222 -0.04987768 0.003072936 -0.11628963 -0.054582033 -0.043858524 -0.013189352 -0.073892094
00000000: 1e1c 8abd ee10 79bd 3504 f13b a54c 09be
00000010: 4806 943c 3af2 7abd 1535 edbc 6d66 e8bd
00000020: 445e 2a3c 4413 ab3c 6b38 2cbd b0e1 9dbc
00000030: 6897 06bd 6625 37bb 96c3 0abd 0a7b 893d
00000040: f904 44bb 79a6 33bc 5218 72bd 8c77 ddbc
00000050: 9c08 e9bd 368c 32bd 38d8 4b3d 6637 4abd
00000060: 795d 88bd 690d e7bd c26f dd3c b521 0fbe
00000070: ee25 b6bd 5620 f43b f07a abbd 525f 1c3d
00000080: 74d2 9cbd e77b 0e3e 6182 64bd 4aca 80bb
00000090: 2b52 42bc d71c 2f3b 3b28 c5bd e60b 29bd
000000a0: 1054 6fbc b975 60bd 94ca 3abd 4d54 b8bd
000000b0: 717f 7f3d b2f0 57bd ad3d c03d 23db 38bd
000000c0: e900 f43c ab96 033c 1eb5 0fbd bf10 92bc
000000d0: cb5f 503d a351 38ba 5403 2c3d 001c babb
000000e0: 5bdd 153e 8a4c 4cbd 5063 493b 4229 eebd
000000f0: 6991 5fbd ffa4 33bd 2718 58bc bd54 97bd

conv3.weight f4 [128, 64, 3, 3]
4.9547e-41 4.9061e-41 5.0305e-41 4.9372e-41 -4.9603e-41 -4.9068e-41 4.9797e-41 5.1328e-41
5.4625e-41 4.9138e-41 -4.9107e-41 4.9577e-41 4.9435e-41 4.9453e-41 -4.9173e-41 -6.1238e-41
5.0944e-41 5.6807e-41 -4.9529e-41 -4.9546e-41 -4.9211e-41 4.916e-41 5.075e-41 4.9181e-41
-4.9264e-41 -4.9316e-41 4.9249e-41 4.9337e-41 -4.9338e-41 -4.9137e-41 4.915e-41 -4.9103e-41
-4.9372e-41 5.449e-41 -4.9101e-41 4.9627e-41 5e-41 4.9506e-41 4.9258e-41 4.9174e-41
-4.9432e-41 4.944e-41 6.2239e-41 -5.1275e-41 5.0719e-41 5.5222e-41 5.185e-41 5.0508e-41
6.128e-41 5.088e-41 6.1584e-41 6.045e-41 -4.9675e-41 4.9257e-41 5.3866e-41 -5.3835e-41
-5.8804e-41 -5.6708e-41 -6.1548e-41 5.6446e-41 5.0552e-41 6.1789e-41 -5.6559e-41 -4.961e-41
5.3839e-41 -5.0789e-41 4.953e-41 -4.9386e-41 4.9455e-41 5.061e-41 4.9909e-41 5.0145e-41
-4.9153e-41 4.9146e-41 -4.923e-41 -4.935e-41 4.9267e-41 -4.9314e-41 5.2013e-41 -4.9331e-41
5.0004e-41 6.259e-41 5.1987e-41 -4.9785e-41 -4.9704e-41 -6.0076e-41 -5.3939e-41 4.9478e-41
6.1465e-41 5.1572e-41 4.9104e-41 4.918e-41 4.9302e-41 -4.9316e-41 -4.9421e-41 -4.9138e-41
-4.976e-41 4.933e-41 5.0066e-41 -5.7023e-41 -4.9296e-41 5.2645e-41 4.9344e-41 -4.952e-41
-4.9364e-41 -5.1964e-41 -5.043e-41 5.0253e-41 -5.6007e-41 -5.5426e-41 -4.9149e-41 4.9165e-41
-5.7599e-41 -6.0051e-41 5.1998e-41 5.212e-41 -5.8469e-41 -4.9174e-41 -4.9418e-41 -4.9347e-41
4.9096e-41 -4.9382e-41 -4.933e-41 -5.0768e-41 5.0434e-41 4.9607e-41 -4.929e-41 -4.9379e-41
4.9431e-41 -4.9464e-41 4.9334e-41 -6.274e-41 -5.3391e-41 4.9893e-41 -5.0754e-41 4.953e-41
4.955e-41 5.6493e-41 -4.9502e-41 -4.9078e-41 -4.9991e-41 5.0888e-41 -4.9242e-41 -4.9383e-41
-4.915e-41 -4.9376e-41 4.9275e-41 5.3195e-41 -4.955e-41 4.9172e-41 5.745e-41 -4.9506e-41
5.0074e-41 -4.9399e-41 -4.9271e-41 -4.907e-41 4.9257e-41 4.9116e-41 -4.9284e-41 5.6264e-41
4.9355e-41 -5.0246e-41 -4.9293e-41 4.9243e-41 4.9369e-41 -4.9445e-41 -4.939e-41 -4.909e-41
4.9584e-41 4.982e-41 -5.3133e-41 4.9305e-41 4.9113e-41 4.9512e-41 -4.947e-41 -4.9313e-41
-4.9113e-41 4.9302e-41 5.7794e-41 5.0199e-41 -5.1163e-41 -4.969e-41 -5.5854e-41 -5.3205e-41
-5.0532e-41 5.0025e-41 -4.9306e-41 5.0744e-41 5.3873e-41 -4.9111e-41 -4.9449e-41 6.1905e-41
5.9103e-41 -4.943e-41 -5.0164e-41 5.103e-41 5.2997e-41 -4.9247e-41 -4.9249e-41 -4.9408e-41
-4.936e-41 -4.9313e-41 -4.9083e-41 -4.9446e-41 -4.9132e-41 5.059e-41 -5.0843e-41 5.7738e-41
5.8482e-41 -6.2255e-41 -5.749e-41 6.0765e-41 -5.4974e-41 5.5148e-41 5.96e-41 5.1397e-41
-4.918e-41 5.7516e-41 -5.4313e-41 4.9549e-41 4.9179e-41 -5.9648e-41 4.9459e-41 4.9532e-41
4.909e-41 4.9358e-41 4.9435e-41 -4.9299e-41 -4.9484e-41 4.9343e-41 -4.9462e-41 -4.9085e-41
4.9205e-41 -5.3667e-41 -4.94e-41 -4.9277e-41 -4.9327e-41 4.9298e-41 4.9365e-41 4.911e-41
-5.1122e-41 4.9743e-41 4.9495e-41 -5.2182e-41 -5.1803e-41 -6.2586e-41 5.3985e-41 -5.5151e-41
5.3353e-41 5.1606e-41 4.9606e-41 5.0103e-41 -4.9322e-41 4.9351e-41 -4.9193e-41 -4.9093e-41
00000000: 1e8a 0000 c388 0000 3b8c 0000 a189 0000
00000010: 468a 0080 c888 0080 d08a 0000 158f 0000
00000020: 4698 0000 fa88 0000 e488 0080 338a 0000
00000030: ce89 0000 db89 0000 1389 0080 b5aa 0080
00000040: 038e 0000 5b9e 0000 118a 0080 1d8a 0080
00000050: 2e89 0080 0a89 0000 788d 0000 1989 0000
00000060: 5489 0080 7989 0080 4989 0000 8889 0000
00000070: 8989 0080 f988 0080 0389 0000 e188 0080
00000080: a189 0080 e597 0000 e088 0080 578a 0000
00000090: 618b 0000 018a 0000 5089 0000 1489 0000
000000a0: cc89 0080 d289 0000 7fad 0000 ef8e 0080
000000b0: 628d 0000 f099 0000 8990 0000 cc8c 0000
000000c0: d3aa 0000 d58d 0000 acab 0000 83a8 0000
000000d0: 798a 0080 4f89 0000 2896 0000 1296 0080
000000e0: eca3 0080 149e 0080 92ab 0080 599d 0000
000000f0: eb8c 0000 3eac 0000 aa9d 0080 4b8a 0080
00000100: 1596 0000 948d 0080 128a 0000 ab89 0080
00000110: dc89 0000 158d 0000 208b 0000 c98b 0000
00000120: 0589 0080 0089 0000 3c89 0080 9189 0080
00000130: 5689 0000 7889 0080 fe90 0000 8489 0080
00000140: 648b 0000 7aae 0000 eb90 0000 c88a 0080
00000150: 8e8a 0080 78a7 0080 5c96 0080 ed89 0000
00000160: 57ab 0000 c38f 0000 e288 0000 1889 0000
00000170: 6f89 0000 7989 0080 c489 0080 fa88 0080
00000180: b68a 0080 8389 0000 908b 0000 f59e 0080
00000190: 6b89 0080 c192 0000 8d89 0000 0b8a 0080
000001a0: 9b89 0080 db90 0080 948c 0080 168c 0000
000001b0: 209c 0080 819a 0080 0289 0080 0d89 0000
000001c0: 90a0 0080 66a7 0080 f390 0000 4a91 0000
000001d0: fda2 0080 1489 0080 c289 0080 8f89 0080
000001e0: dc88 0000 a889 0080 8389 0080 858d 0080
000001f0: 978c 0000 498a 0000 6789 0080 a689 0080
00000200: cb89 0000 e389 0080 8689 0000 e5ae 0080
00000210: d594 0080 158b 0000 7b8d 0080 128a 0000
00000220: 208a 0000 7b9d 0000 fe89 0080 cf88 0080
00000230: 5b8b 0080 db8d 0000 4489 0080 a989 0080
00000240: 0389 0080 a489 0080 5c89 0000 4994 0000
00000250: 208a 0080 1289 0000 26a0 0000 018a 0080
00000260: 968b 0000 b489 0080 5989 0080 ca88 0080
00000270: 4f89 0000 ea88 0000 6289 0080 d79c 0000
00000280: 9589 0000 118c 0080 6989 0080 4589 0000
00000290: 9f89 0000 d589 0080 ae89 0080 d888 0080
000002a0: 388a 0000 e18a 0000 1d94 0080 7189 0000
000002b0: e888 0000 058a 0000 e789 0080 7789 0080
000002c0: e888 0080 6f89 0000 1ba1 0000 ef8b 0000
000002d0: 9f8e 0080 848a 0080 b39b 0080 5094 0080
000002e0: dd8c 0080 738b 0000 7289 0080 748d 0000
000002f0: 2d96 0000 e788 0080 d889 0080 91ac 0000
00000300: c1a4 0000 ca89 0080 d68b 0080 408e 0000
00000310: bc93 0000 4889 0080 4989 0080 bb89 0080
00000320: 9889 0080 7789 0080 d388 0080 d689 0080
00000330: f688 0080 068d 0000 bb8d 0080 f3a0 0000
00000340: 06a3 0000 8bad 0080 42a0 0080 63a9 0000
00000350: 3f99 0080 bb99 0000 24a6 0000 468f 0000
00000360: 1889 0080 55a0 0000 6797 0080 1f8a 0000
00000370: 1789 0000 46a6 0080 df89 0000 138a 0000
00000380: d888 0000 9789 0000 ce89 0000 6d89 0080
00000390: f189 0080 8c89 0000 e189 0080 d488 0080
000003a0: 2a89 0000 9a95 0080 b589 0080 5d89 0080
000003b0: 8189 0080 6c89 0000 9c89 0000 e688 0000
000003c0: 828e 0080 aa8a 0000 f989 0000 7691 0080
000003d0: 6890 0080 77ae 0080 7d96 0000 bd99 0080
000003e0: ba94 0000 db8f 0000 488a 0000 ab8b 0000
000003f0: 7d89 0080 9289 0000 2189 0080 da88 0080

conv3.bias f4 [128]
-7.206818e-21 -0.025903212 -0.02085648 0.04886366 -0.09588054 -0.07728225 -0.041048996 0.08156394
-0.037197243 0.079690374 -0.10466988 0.0916289 -0.05797009 0.137022 -0.059337713 -0.027237257
-0.05938537 0.050154418 0.08918632 0.044662498 -0.063045144 -0.05965572 -0.07181096 0.03149023
0.052644916 0.003376069 -8.6633486e-07 0.104361445 0.15455376 0.010373933 0.15422165 -0.019510478
-0.056612015 -0.064047396 -0.0762094 0.033908173 0.02789654 0.021770263 -3.438244e-25 -0.08153975
-0.039207682 0.05225496 0.07307067 0.0069709304 0.02760856 -0.06159904 -0.1136962 0.20573929
-4.2328724e-10 -0.03970179 0.18843658 0.09196531 -0.08489807 0.053078823 0.034304302 0.08580114
0.0018374635 0.08741302 0.010571619 0.2601453 0.12765422 0.065608524 -0.024056008 -0.02351499
-7.463524e-15 0.18253253 0.13592349 -0.050143123 0.04106921 -3.2597734e-30 -1.6012599e-09 -0.014400317
-0.10483101 -0.029681282 0.007203892 0.047664177 -0.00250435 0.15291417 -1.1287486e-08 0.12038477
-0.09293072 -0.045224503 -0.007130603 -0.110670626 -0.011973448 0.076639414 0.0119135855 0.047302205
-0.0047636516 -2.4321414e-14 -0.109340005 -0.067051455 0.088932015 0.07143838 0.059677146 0.035688348
0.026124956 -0.003246407 -0.031028382 -0.070727766 0.06755385 0.09877685 0.030467328 0.059523847
-0.19015506 -0.08555914 -0.07254694 -0.057065763 0.029349491 0.01097392 0.11992123 0.1411143
0.037692565 0.0038307193 0.139817 0.0061027883 -0.034160413 0.03657918 0.1328651 -0.028520936
0.057396352 0.08263013 -2.9414377e-05 -0.11011295 -0.03301829 0.06591342 -0.08122267 -0.07017376
00000000: 0922 089e f932 d4bc 35db aabc 4325 483d
00000010: 045d c4bd 2846 9ebd fe22 28bd ff0a a73d
00000020: 235c 18bd b534 a33d 295d d6bd efa7 bb3d
00000030: 0c72 6dbd 7f4f 0c3e 1a0c 73bd ab20 dfbc
00000040: 133e 73bd b86e 4d3d 51a7 b63d 06f0 363d
00000050: d01d 81bd 8e59 74bd a011 93bd e6fb 003d
00000060: 32a2 573d 0a41 5d3b 148e 68b5 74bb d53d
00000070: 5743 1e3e 6ef7 293c 48ec 1d3e 70d4 9fbc
00000080: 00e2 67bd 482b 83bd ad13 9cbd 4ce3 0a3d
00000090: 4987 e43c 8d57 b23c 27d1 d496 50fe a6bd
000000a0: 3c98 20bd 4c09 563d 13a6 953d 676c e43b
000000b0: 592b e23c 464f 7cbd 8ed9 e8bd 52ad 523e
000000c0: 62b4 e8af 589e 22bd 85f5 403e 4f58 bc3d
000000d0: 0adf adbd 2e69 593d ab82 0c3d 82b8 af3d
000000e0: 0bd7 f03a 9905 b33d 9534 2d3c c431 853e
000000f0: cab7 023e c35d 863d 1b11 c5bc 82a2 c0bc
00000100: 6e73 06a8 cfe9 3a3e 872f 0b3e e062 4dbd
00000110: 3038 283d 6c3b 848e 5313 dcb0 4fef 6bbc
00000120: a4b1 d6bd 2926 f3bc a00e ec3b 833b 433d
00000130: 0520 24bb 8895 1c3e e3ea 41b2 4a8c f63d
00000140: 7652 bebd 543d 39bd d5a7 e9bb 48a7 e2bd
00000150: 482c 44bc 20f5 9c3d 3331 433c f5bf 413d
00000160: 6818 9cbb 5d11 dba8 a7ed dfbd 4652 89bd
00000170: fd21 b63d 494e 923d 0670 743d f22d 123d
00000180: 0104 d63c acc1 54bb 3c2f febc b8d9 90bd
00000190: ac59 8a3d 844b ca3d 9e96 f93c 47cf 733d
000001a0: 02b8 42be a139 afbd 7d93 94bd cabd 69bd
000001b0: 586e f03c f5cb 333c 4399 f53d 4480 103e
000001c0: 8563 1a3d ce0c 7b3b 302c 0f3e e6f9 c73b
000001d0: caeb 0bbd 0dd4 153d ca0d 083e bda4 e9bc
000001e0: 7018 6b3d fc39 a93d e5be f6b7 e682 e1bd
000001f0: 303e 07bd 9dfd 863d 1258 a6bd 43b7 8fbd

act_conv1.weight f4 [4, 128, 1, 1]
-5.3219e-41 0.098144755 -0.15506768 0.017727248 -0.016055483 -0.11168649 0.1741881 -0.7054671
-0.074446686 -0.090514205 -0.4529992 -0.11617046 0.04047156 0.14171883 0.08919131 -0.05330054
0.03508496 0.07281435 0.3617456 0.033409745 0.10694864 -0.046245005 0.0053398483 0.042299923
0.25901625 -0.07612909 0.00017466604 0.0738412 0.12546556 -0.56724095 0.26378444 0.032354925
0.09365305 0.52893555 0.045253303 0.3729845 0.15822907 0.04400588 4.9651e-41 -0.0017512594
0.14017832 -0.25079432 -0.27631468 0.10979339 0.19180463 0.06631936 0.33963868 -0.0060143704
-5.0336e-41 -0.1156684 0.1073304 0.015610609 0.16298313 0.109621674 -0.09752279 0.13084759
0.07249917 0.23462798 -0.59654874 0.20245415 0.22813685 0.15157978 0.12921464 -0.16749811
5.7755e-41 -0.28277728 -0.34353575 -0.019613449 -0.19945124 -5.371e-41 -5.0246e-41 0.049402785
0.015812162 0.10996258 0.049800742 -0.11812578 0.020396678 -0.62123007 -5.109e-41 -0.40301257
-0.06453613 -0.37114394 0.071667865 -0.035237815 0.07073959 0.16899839 -0.036281813 0.0011367601
0.04855056 -5.5306e-41 -0.0837125 0.025390381 -0.7524587 -0.18310302 0.05335338 0.07881999
-0.046893027 -0.063344724 -0.006367606 -0.45242232 0.19310533 0.0476442 -0.075839244 0.013054402
0.20371883 0.059535235 -0.013826644 -0.0029674224 0.41578662 -0.03736969 0.21511348 -0.5145579
-0.016290113 0.12732406 0.43029958 9.391558e-05 0.046928488 -0.24445775 0.25096855 0.10055396
-0.85724384 0.027702153 0.0020032942 0.004121687 -0.21301922 -0.376196 0.25070128 0.029137146
-5.2266e-41 0.23979002 -0.0012360851 0.015376027 -0.06490312 -0.004831646 -0.0203867 0.10786557
-0.071797 -0.10162768 -0.1117699 0.12898618 0.19691385 -0.036130205 -0.018318275 0.11713873
-0.13303243 0.29029465 0.29614228 0.17022038 -0.02804578 0.052564517 -0.23531905 -0.039464887
0.23506932 0.13799737 -0.0006632556 -0.11429808 0.21739024 -0.151526 0.12013941 -0.03360959
-0.10145192 -0.40708247 -0.016076548 0.5854398 0.23151745 -0.064157486 5.0067e-41 -0.14252414
-0.33698395 -0.09078174 -0.68804884 0.17304051 0.10015982 -0.024886495 0.4502816 0.3301287
-5.5361e-41 0.21147381 0.34348303 0.0107504 -0.25554478 0.26144466 0.11670841 -0.019728137
0.092446476 0.24885027 -0.0659883 0.5343809 0.2597326 0.6529529 -0.045756005 0.04117929
-4.9052e-41 0.20441137 0.11984394 0.030390315 0.1155398 -4.9773e-41 -5.2563e-41 0.07089077
0.040803395 -0.7311526 0.11010798 -0.097911164 -0.0227416 0.10742884 5.6649e-41 0.25854963
-0.24219584 -0.45972347 0.12140779 -0.117440246 -0.20832902 0.19902195 -0.16236271 0.02538071
0.06918232 5.237e-41 -0.4548219 0.12978502 0.044229683 0.16187607 0.1035663 -0.060470585
0.170284 -0.018595232 -0.008608346 -0.34189188 0.25431937 0.055258114 -0.10287979 -0.04928988
-0.6086596 -0.026129032 -0.25581923 -0.6690465 0.045342617 0.030899908 0.067552716 0.13853335
0.24379739 -0.045139253 0.463234 0.0110022165 -0.3107724 -0.507626 0.40656823 0.22944449
0.03199325 -0.059883304 -0.0011199759 -0.14169002 -0.42579776 0.075217225 -0.52520317 0.3444953
00000000: 5a94 0080 1e00 c93d 10ca 1ebe bc38 913c
00000010: ca86 83bc e3bb e4bd 5e5e 323e 7e99 34bf
00000020: 8177 98bd 835f b9bd 83ef e7be c7ea edbd
00000030: 82c5 253d be1e 113e efa9 b63d ab51 5abd
00000040: 3fb5 0f3d b11f 953d b836 b93e a8d8 083d
00000050: e307 db3d 676b 3dbd e5f9 ae3b af42 2d3d
00000060: c79d 843e 91e9 9bbd 8f26 3739 0e3a 973d
00000070: 0b7a 003e b436 11bf c10e 873e 9986 043d
00000080: 2ccd bf3d 5268 073f 875b 393d d3f7 be3e
00000090: cd06 223e 823f 343d 688a 0000 848a e5ba
000000a0: e88a 0f3e 1d68 80be 1e79 8dbe 5bdb e03d
000000b0: 6f68 443e 72d2 873d 1fe5 ad3e 3214 c5bb
000000c0: 518c 0080 8ee3 ecbd 0ad0 db3d a4c3 7f3c
000000d0: 0de5 263e 5481 e03d 07ba c7bd e9fc 053e
000000e0: 727a 943d 5142 703e 6bb7 18bf 2450 4f3e
000000f0: b59c 693e bb37 1b3e d850 043e a084 2bbe
00000100: ffa0 0000 2fc8 90be ebe3 afbe 62ac a0bc
00000110: f23c 4cbe b995 0080 118c 0080 935a 4a3d
00000120: 8288 813c 1034 e13d ddfb 4b3d eeeb f1bd
00000130: ef16 a73c ef08 1fbf 6b8e 0080 aa57 cebe
00000140: 852b 84bd 9406 bebe 9ac6 923d 8755 10bd
00000150: ebdf 903d ea0d 2d3e 3d9c 14bd 57ff 943a
00000160: f4dc 463d 2c9a 0080 7671 abbd 7dff cf3c
00000170: 22a1 40bf 5c7f 3bbe 1389 5a3d 606c a13d
00000180: e712 40bd e1ba 81bd 5aa7 d0bb e6a3 e7be
00000190: 67bd 453e 9126 433d 9b51 9bbd 21e2 553c
000001a0: ab9b 503e 38db 733d 2689 62bc 1679 42bb
000001b0: fce1 d43e f610 19bd b546 5c3e 11ba 03bf
000001c0: d872 85bc 3d61 023e 3a50 dc3e 8bf4 c438
000001d0: 1638 403d 2253 7abe f37e 803e 3cef cd3d
000001e0: 5574 5bbf a0ef e23c b349 033b 370f 873b
000001f0: b621 5abe c39c c0be eb5b 803e 06b1 ee3c
00000200: b291 0080 848b 753e 2204 a2ba bbeb 7b3c
00000210: edeb 84bd c952 9ebb 0202 a7bc a0e8 dc3d
00000220: 4e0a 93bd 2c22 d0bd 9ee7 e4bd f414 043e
00000230: c9a3 493e 44fd 13bd 3510 96bc 6ee6 ef3d
00000240: a739 08be 80a1 943e f69f 973e 404e 2e3e
00000250: 43c0 e5bc e44d 573d 7af7 70be efa5 21bd
00000260: 03b6 703e 2f4f 0d3e 54de 2dba 1d15 eabd
00000270: 8c9b 5e3e a229 1bbe a70b f63d 36aa 09bd
00000280: 06c6 cfbd 1d6d d0be f7b2 83bc 62df 153f
00000290: e912 6d3e 0065 83bd 918b 0000 d9f1 11be
000002a0: 2989 acbe c7eb b9bd f823 30bf 8831 313e
000002b0: 9720 cd3d c3de cbbc 4f8b e63e a106 a93e
000002c0: 539a 0080 978c 583e 02dd af3e 7222 303c
000002d0: c4d6 82be 13dc 853e d204 ef3d e79c a1bc
000002e0: 9454 bd3d 9bd2 7e3e e024 87bd 30cd 083f
000002f0: acfb 843e ec27 273f a66a 3bbd 9dab 283d
00000300: bd88 0080 3751 513e bd70 f53d 1cf5 f83c
00000310: 21a0 ec3d bf8a 0080 8692 0080 2e2f 913d
00000320: 7621 273d d12c 3bbf 4b80 e13d a685 c8bd
00000330: 984c babc a703 dc3d ea9d 0000 9e60 843e
00000340: 3002 78be e060 ebbe a6a4 f83d 8384 f0bd
00000350: 3454 55be 69cc 4b3e 6942 26be 35eb cf3c
00000360: 76af 8d3d fc91 0000 6bde e8be 5de6 043e
00000370: 2f2a 353d d7c2 253e 911a d43d 01b0 77bd
00000380: ee5e 2e3e 0755 98bc 050a 0dbc 740c afbe
00000390: 2636 823e 5556 623d a4b2 d2bd 2fe4 49bd
000003a0: 1ed1 1bbf 8d0c d6bc bdfa 82be a246 2bbf
000003b0: 2eb9 393d ce21 fd3c 1459 8a3d b0db 0d3e
000003c0: 06a6 793e f0e3 38bd 022d ed3e a442 343c
000003d0: 8f1d 9fbe c7f3 01bf b629 d03e 7ff3 6a3e
000003e0: 5b0b 033d 3248 75bd 28cc 92ba 3017 11be
000003f0: 2a02 dabe 7d0b 9a3d b773 06bf b061 b03e

act_conv1.bias f4 [4]
-0.055569183 0.16743897 0.05571908 0.20139915
00000000: 839c 63bd 1f75 2b3e b139 643d 943b 4e3e

act_fc1.weight f4 [36, 144]
0.0476118 -0.07554077 0.006319507 0.047693476 0.19689825 0.09479939 0.098178424 2.4593903e-05
-0.046220277 0.00010312132 -0.07320633 0.011950794 0.16887468 0.17009678 -0.014325605 0.06379849
-0.07725167 0.09535951 -0.1033189 0.010875427 -0.059923656 0.119008675 0.08596151 -0.01652022
-0.060325537 -0.035057966 0.071953006 -0.0032792191 0.067493096 0.0067295907 -0.11363674 -0.017387891
0.054563574 -0.022393383 0.14398046 0.04890591 -0.07898823 -0.07317012 -0.0178019 0.043091577
-0.11223589 -0.243262 -0.031459916 0.007592218 -0.049156666 0.024934053 -0.19067703 0.03239149
0.10175485 -0.1681394 -0.102069005 -0.13502279 0.0032070847 -0.12975483 -0.12493544 -0.047501042
-0.11758567 -0.077107 -0.044935886 -0.058962528 -0.067030415 -0.016923163 0.17672066 0.17195348
-0.09105957 -0.05163003 -0.0011335628 -0.15483876 0.18511306 -0.082548976 0.058553167 -0.0044346666
-0.07799319 -0.07124057 0.026370702 0.067699246 -0.050174933 -0.13932815 -0.09418778 0.048120953
-0.067442186 -0.028750394 -0.040727235 -0.0002524156 -0.050674677 -0.011238795 -0.023491343 -0.045515828
-0.040659457 -0.10772466 -0.054868624 -0.040276643 0.19940752 -0.06499813 -0.053988554 -0.04909656
0.074945346 -0.12900382 -0.15401602 0.06452537 0.055125576 0.049594015 -0.2688619 -0.10723082
-0.07829712 -0.07078931 0.18421875 -0.0639274 0.012956866 -0.1297246 -0.17427471 0.07306868
-0.0935207 0.0074498476 -0.15718938 0.024175962 0.16665874 0.001690349 0.073906355 0.05267302
0.07573357 0.1438864 0.18094443 0.035225436 0.006823188 0.050724957 -0.0077993665 0.07150538
0.0041143596 0.016281577 0.04628026 0.017353287 -0.39040625 -0.19676681 -0.055868395 0.029244205
-0.06889905 -0.008795637 0.14460772 -0.028255463 0.2150212 0.030553818 0.08234826 0.06336222
-0.036352485 -0.18749142 -0.00028590666 0.023841014 0.1034472 -0.077041686 0.11887152 -0.014427878
-0.10355913 -0.07633665 0.013824989 -0.013297013 -0.09348694 -0.045102004 -0.00047889585 0.06989781
-0.093490005 -0.033063777 0.08525721 0.123197205 0.032320373 -0.074820675 0.06594134 -0.0029542428
0.004070486 0.044248816 -0.062758945 0.111267716 -0.07931261 -0.032399237 -0.045883287 -0.05019593
-0.044671223 0.021085724 0.1633116 0.2894436 -0.16480044 0.01361195 0.055014998 -0.040805344
-0.04216732 -0.19562727 -0.13725398 -0.125711 -0.029222516 -0.054411534 -0.13210523 -0.061907716
0.03920372 -0.12815683 -0.11002103 0.0028289384 -0.08707395 -0.04475893 -0.017341504 -0.118285045
0.13700818 -0.020096017 -0.13641179 0.060346086 -0.33515885 0.0051277145 0.08825697 0.11790368
0.11684103 0.04816581 0.14847367 -0.24342456 -0.30903742 -0.0010429588 -0.024940636 0.10309837
0.0445657 0.055663023 -0.050277002 -0.14058581 -0.06081032 0.11017069 -0.12103862 -0.09208451
-0.017585741 0.016725237 -0.10405108 0.04336566 -0.026809523 0.08737496 -0.04327212 -0.17528705
-0.018673649 -0.101340875 0.109930225 0.04138099 -0.005517472 0.18762097 -0.01577213 0.012286594
0.23211491 -0.008104369 -0.051791493 -0.0673636 0.2188007 -0.07364168 0.095873386 -0.14207833
0.0026993488 -0.07644998 -0.16665518 0.117003106 0.029851075 0.0514925 0.03412742 0.07062329
00000000: 9704 433d 1fb5 9abd de13 cf3b 3c5a 433d
00000010: b29f 493e 2f26 c23d c511 c93d 014f ce37
00000020: 7951 3dbd d642 d838 33ed 95bd 43cd 433c
00000030: 7ced 2c3e da2d 2e3e f1b5 6abc c8a8 823d
00000040: 2036 9ebd d94b c33d dc98 d3bd d92e 323c
00000050: 8272 75bd d2ba f33d 970c b03d 6a55 87bc
00000060: e917 77bd f198 0fbd 195c 933d 2be8 56bb
00000070: d239 8a3d e683 dc3b 61ba e8bd 0d71 8ebc
00000080: 0e7e 5f3d 5472 b7bc 9d6f 133e 9051 483d
00000090: 95c4 a1bd 37da 95bd 4ad5 91bc cb80 303d
000000a0: eedb e5bd ac19 79be 1ddc 00bd 24c8 f83b
000000b0: 8058 49bd 8042 cc3c d740 43be f0ac 043d
000000c0: d964 d03d bc2c 2cbe 8e09 d1bd 6a43 0abe
000000d0: f42d 523b 73de 04be 27de ffbd 7490 42bd
000000e0: c1d0 f0bd 46ea 9dbd b10e 38bd b182 71bd
000000f0: 3e47 89bd 72a2 8abc 43f6 343e 9314 303e
00000100: 717d babd 037a 53bd 0e94 94ba 0d8e 1ebe
00000110: 478e 3d3e 700f a9bd 72d5 6f3d ae50 91bb
00000120: e5ba 9fbd 93e6 91bd 5f07 d83c e7a5 8a3d
00000130: 3b84 4dbd 0aac 0ebe 86e5 c0bd 7a1a 453d
00000140: 211f 8abd f285 ebbc 9ad1 26bd a656 84b9
00000150: 4090 4fbd ec22 38bc eb70 c0bc ce6e 3abd
00000160: 888a 26bd bf9e dcbd ecbd 60bd 1ff9 24bd
00000170: 7c31 4c3e bd1d 85bd 1a23 5dbd 7919 49bd
00000180: f27c 993d 9419 04be 60b6 1dbe e125 843d
00000190: 5bcb 613d 1823 4b3d 44a8 89be d59b dbbd
000001a0: 3e5a a0bd fcf9 90bd d7a3 3c3e 5eec 82bd
000001b0: 0949 543c 87d6 04be 1275 32be 08a5 953d
000001c0: c887 bfbd da1d f43b 41f6 20be ab0c c63c
000001d0: 97a8 2a3e b38e dd3a 375c 973d aabf 573d
000001e0: 341a 9b3d f556 133e 7f49 393e 8c48 103d
000001f0: 0d95 df3b f9c4 4f3d d491 ffbb 6a71 923d
00000200: c0d1 863b f160 853c 5f90 3d3d 7b28 8e3c
00000210: 54e3 c7be 3d7d 49be 42d6 64bd 8b91 ef3c
00000220: f21a 8dbd 931b 10bc 0c14 143e 0078 e7bc
00000230: 842e 5c3e 004c fa3c 34a6 a83d 0dc4 813d
00000240: 58e6 14bd c0fd 3fbe bee5 95b9 3b4e c33c
00000250: 20dc d33d 08c8 9dbd e972 f33d e862 6cbc
00000260: cf16 d4bd 6456 9cbd 3582 623c b7db 59bc
00000270: 1576 bfbd e1bc 38bd 5014 fbb9 9526 8f3d
00000280: b077 bfbd e26d 07bd 559b ae3d d14e fc3d
00000290: 5e62 043d 953b 99bd 410c 873d f89b 41bb
000002a0: b661 853b 3f3e 353d c387 80bd 54e0 e33d
000002b0: a66e a2bd 10b5 04bd 1df0 3bbd 3f9a 4dbd
000002c0: 2cf9 36bd f8bb ac3c 283b 273e f431 943e
000002d0: 72c1 28be a804 5f3c 6857 613d 8123 27bd
000002e0: a4b7 2cbd 8452 48be 4f8c 0cbe 62ba 00be
000002f0: 0f64 efbc a1de 5ebd 9846 07be f292 7dbd
00000300: 1494 203d 8b3b 03be b552 e1bd b665 393b
00000310: d453 b2bd 2455 37bd c50f 8ebc 6e3f f2bd
00000320: df4b 0c3e 67a0 a4bc 88af 0bbe 752d 773d
00000330: f199 abbe 6306 a83b 12c0 b43d 7c77 f13d
00000340: 5a4a ef3d 8349 453d 7b09 183e 4a44 79be
00000350: 273a 9ebe e4b3 88ba 4e50 ccbc 3d25 d33d
00000360: 868a 363d e9fe 633d 42ef 4dbd baf5 0fbe
00000370: 3e14 79bd 2ca1 e13d 19e3 f7bd ce96 bcbd
00000380: f90f 90bc 5d03 893c bc18 d5bd 31a0 313d
00000390: a59f dbbc a5f1 b23d 1b3e 31bd 737e 33be
000003a0: 7bf9 98bc ce8b cfbd 1923 e13d 1d7f 293d
000003b0: e9cb b4bb b61f 403e 8e34 81bc b64d 493c
000003c0: 88af 6d3e 30c8 04bc 5123 54bd edf5 89bd
000003d0: 4a0d 603e 73d1 96bd 4459 c43d fb7c 11be
000003e0: 8fe7 303b cf91 9cbd a8a7 2abe 539f ef3d
000003f0: 3e8a f43c cde9 523d 32c9 0b3d f2a2 903d

act_fc1.bias f4 [36]
-0.2623267 -0.2532356 -0.092234224 -0.26676837 -0.18356664 -0.3555619 -0.09897041 -0.09639438
0.16469105 0.09530174 0.03948457 -0.04032112 0.0024963063 -0.01895366 0.100507274 -0.13707602
0.15669426 -0.11818214 0.09839386 -0.021953328 0.3734933 -0.17348853 0.04385891 0.10084091
0.03643603 0.058380134 0.7527841 -0.062798776 0.049706813 -0.07950795 -0.10695564 -0.19968605
-0.08940377 -0.13590845 -0.16346379 -0.17434242
00000000: af4f 86be 19a8 81be 4ce5 bcbd dd95 88be
00000010: e5f8 3bbe 360c b6be 00b1 cabd 6b6a c5bd
00000020: c5a4 283e 8f2d c33d 93ba 213d c227 25bd
00000030: 1299 233b b544 9bbc c2d6 cd3d a85d 0cbe
00000040: 7674 203e 7a09 f2bd b882 c93d 77d7 b3bc
00000050: 843a bf3e faa6 31be 67a5 333d ae85 ce3d
00000060: f23d 153d 0220 6f3d 75b6 403f a59c 80bd
00000070: 5f99 4b3d 10d5 a2bd 8f0b dbbd 807a 4cbe
00000080: 5319 b7bd 962b 0bbe 0d63 27be d286 32be

val_conv1.weight f4 [2, 128, 1, 1]
-4.9443e-41 -3.3134062e-28 -2.1047392e-06 -1.9340227e-10 -1.4983307e-08 4.9104e-41 -3.7523233e-07 -3.236062e-05
4.9368e-41 4.9051e-41 -1.0068659e-15 -4.9364e-41 -5.923532e-27 -7.616686e-07 5.5674e-41 2.3158418e-35
-4.9251e-41 4.9393e-41 -4.9298e-41 -4.911e-41 -1.3037367e-22 -4.9449e-41 -5.3202e-41 -9.741605e-07
-2.0047098e-06 5.2481e-41 6.0588e-41 -9.075806e-08 4.9079e-41 -4.213917e-07 -8.319901e-10 4.9443e-41
-2.0963525e-24 -5.2428e-41 5.1936e-41 4.9598e-41 -4.9543e-41 -2.601737e-10 5.011e-41 4.9184e-41
-4.9101e-41 -1.804403e-06 -2.8416536e-19 -4.9104e-41 -4.9509e-41 -2.2309952e-21 -4.9309e-41 -1.854439e-06
-4.9565e-41 -4.9443e-41 4.9075e-41 -4.2182657e-07 -4.9882e-41 -4.9418e-41 -5.7877856e-05 -7.907319e-06
-5.093553e-06 2.3621583e-37 -9.351534e-11 4.9271e-41 -2.6894806e-33 -4.9058e-41 -1.1551922e-14 -3.553498e-12
-4.9564e-41 -1.8812822e-05 -7.08651e-05 -4.9781e-41 -1.3013589e-05 6.1221e-41 5.0476e-41 4.9295e-41
-3.44e-41 -4.9172e-41 4.9504e-41 -4.399658e-05 6.227e-41 -3.291621e-05 -4.9052e-41 -8.212817e-07
4.9366e-41 -1.7220735e-10 -0.00014648051 -4.9431e-41 -0.00026871415 -1.6847821e-06 4.9212e-41 -3.37211e-08
4.9169e-41 5.0506e-41 -5.0465e-41 -5.6661134e-05 -1.0999089e-06 5.7766e-41 4.939e-41 5.719e-41
-6.242976e-26 -3.3194657e-29 -4.9516e-41 -7.4435184e-06 -2.122768e-07 -2.9741184e-05 -4.7499435e-07 -2.3176264e-05
4.9411e-41 -1.9986918e-22 -4.9435e-41 -3.4391197e-25 -4.9394e-41 -4.9331e-41 -5.2948645e-20 -6.156342e-05
-4.9474e-41 -2.21338e-28 -2.3751975e-06 -0.00013063334 -2.3810476e-09 4.9099e-41 -2.404895e-12 -4.9358e-41
-5.1804927e-05 -2.445382e-09 5.8377e-41 5.1145e-41 4.9519e-41 -1.8523377e-07 -4.9163e-41 -7.0906376e-35
4.9181e-41 0.073376015 -0.4192273 0.039370727 0.08452957 0.58682954 -0.4107776 0.036344763
0.14017193 0.12088095 -0.2920585 0.1525466 0.20311719 -0.5465408 -0.007932841 0.17352833
0.34029016 0.17610821 0.11020669 0.090191744 0.059741016 -0.0024789788 0.010274038 -0.47068277
-0.34267637 0.052070387 0.004603802 -0.42231286 0.10842084 0.025629345 -0.03004596 0.21546727
-0.20496888 -0.466121 0.21302289 -0.052408636 0.3147963 0.11776586 7.343207e-05 0.3940329
0.26716572 -0.28092253 -0.20775573 0.14474721 -0.46986333 0.037005663 -0.063788325 -0.16673522
1.3170094e-05 0.25892076 0.17839977 0.020112852 -0.21877223 0.02114914 -0.4382996 -0.43491578
-0.5451647 0.15984344 0.0121020535 -0.41636303 0.073074535 0.2917724 -0.27398163 0.13525784
0.00019330173 -0.02269992 0.02330166 -0.0279985 -0.4901766 -1.6646596e-12 -6.635603e-05 0.19020043
0.24673273 -0.011706573 0.015795505 -0.37201768 -0.009734673 0.021977533 -1.5796383e-08 -0.17113115
0.5207225 0.060206924 -0.4638155 0.47896257 -0.26402807 -0.3466538 0.2865266 0.06522979
0.29488242 -2.3247618e-10 0.37804785 -0.15248176 -0.08506591 -0.17351352 0.05493778 0.5571457
-0.21290007 0.2874034 -0.023766585 -0.3069085 -0.4059602 0.058315773 -0.49806595 -0.3585415
0.08936537 0.23067828 0.48522943 -0.4398137 -0.27680758 0.41932145 -0.0069051855 0.018995048
0.2907046 0.17479359 -0.15715083 -0.4551123 -0.52934414 -0.12745044 -0.10991236 0.20476821
0.008594203 -0.24249819 -0.0031837807 0.16101341 0.20479883 -0.41260242 0.3732151 -0.12486378
00000000: d489 0080 1703 d291 253f 0db6 e6a5 54af
00000010: a4b4 80b2 e288 0000 8a73 c9b4 f3ba 07b8
00000020: 9e89 0000 bc88 0000 cc1a 91a6 9b89 0080
00000030: c0a7 ea93 7875 4cb5 329b 0000 3643 f605
00000040: 4b89 0080 b089 0000 6c89 0080 e688 0080
00000050: b29c 1d9b d889 0080 4e94 0080 e6bf 82b5
00000060: a788 06b6 4c92 0000 e5a8 0000 c5e6 c2b3
00000070: d088 0000 a23b e2b4 19b2 64b0 d489 0000
00000080: 8a32 2298 2692 0080 c790 0000 428a 0000
00000090: 1b8a 0080 3108 8faf b08b 0000 1b89 0000
000000a0: e088 0080 d12e f2b5 dbbd a7a0 e288 0080
000000b0: 038a 0080 b991 289d 7489 0080 0ae6 f8b5
000000c0: 2b8a 0080 d489 0080 cd88 0000 6777 e2b4
000000d0: 0d8b 0080 c289 0080 e0c1 72b8 ada9 04b7
000000e0: 4ae9 aab6 9ac2 a002 75a4 cdae 5989 0000
000000f0: ed6e 5f89 c188 0080 d619 50a8 210e 7aac
00000100: 2a8a 0080 3ad0 9db7 699d 94b8 c58a 0080
00000110: f054 5ab7 a9aa 0000 b58c 0000 6a89 0000
00000120: e55f 0080 1289 0080 ff89 0000 f888 38b8
00000130: 95ad 0000 830f 0ab8 bd88 0080 0c76 5cb5
00000140: 9d89 0000 0f58 3daf 9098 19b9 cb89 0080
00000150: 34e2 8cb9 ac20 e2b5 2f89 0000 bed4 10b3
00000160: 1089 0000 ca8c 0000 ad8c 0080 6ea7 6db8
00000170: 95a0 93b5 07a1 0000 ae89 0000 6c9f 0000
00000180: 9091 9a95 2151 2890 088a 0080 56c3 f9b6
00000190: 34ee 63b4 b57c f9b7 ba02 ffb4 a66a c2b7
000001a0: bd89 0000 84a0 719b ce89 0080 07df d496
000001b0: b189 0080 8489 0080 fc0a 7a9f 9c1b 81b8
000001c0: ea89 0080 254a 8c91 9565 1fb6 9ffa 08b9
000001d0: d59f 23b1 de88 0000 bd3a 29ac 9789 0080
000001e0: 1e49 59b8 9d0b 28b1 bba2 0000 928e 0000
000001f0: 0a8a 0000 ace4 46b4 0c89 0080 6180 bc86
00000200: 1989 0000 2a46 963d f6a4 d6be 3343 213d
00000210: d71d ad3d 763a 163f 7151 d2be 3fde 143d
00000220: 3b89 0f3e 6e90 f73d b188 95be 2d35 1c3e
00000230: f4fd 4f3e 19ea 0bbf bff8 01bc 69b1 313e
00000240: 833a ae3e b655 343e 0cb4 e13d 73b6 b83d
00000250: ffb2 743d 5d76 22bb 7054 283c 55fd f0be
00000260: 4773 afbe c247 553d 7edb 963b 6439 d8be
00000270: bf0b de3d a2f4 d13c f222 f6bc 74a3 5c3e
00000280: 5de3 51be 69a7 eebe ac22 5a3e 70aa 56bd
00000290: fb2c a13e 3a2f f13d 8bff 9938 aebe c93e
000002a0: f2c9 883e 14d5 8fbe ebbd 54be 9d38 143e
000002b0: ed91 f0be 4093 173d 74a3 82bd a3bc 2abe
000002c0: 1ff5 5c37 4391 843e 6eae 363e b5c3 a43c
000002d0: d405 60be f640 ad3c ce68 e0be 48ad debe
000002e0: ea8f 0bbf 00ae 233e b147 463c 892d d5be
000002f0: 1aa8 953d 3163 953e 5247 8cbe 0881 0a3e
00000300: 0ab1 4a39 2ff5 b9bc 1fe3 be3c 1c5d e5bc
00000310: 6df8 fabe af47 eaab 9f28 8bb8 e7c3 423e
00000320: 81a7 7c3e edcc 3fbc 9365 813c 1a79 bebe
00000330: 2e7e 1fbc 3a0a b43c 9db0 87b2 013d 2fbe
00000340: 124e 053f 899b 763d 3a79 edbe 953a f53e
00000350: b02e 87be 9b7c b1be 9db3 923e 3297 853d
00000360: d4fa 963e 3a9c 7faf 7d8f c13e 2e24 1cbe
00000370: 0937 aebd 87ad 31be 7006 613d 1aa1 0e3f
00000380: 7a02 5abe 8a26 933e 24b2 c2bc 1c23 9dbe
00000390: 04da cfbe 85dc 6e3d 8002 ffbe c092 b7be
000003a0: 3105 b73d ed36 6c3e fe6f f83e 432f e1be
000003b0: b9b9 8dbe 4db1 d63e e544 e2bb 819b 9b3c
000003c0: 3cd7 943e 17fd 323e 26ec 20be 7b04 e9be
000003d0: 1983 07bf 5e82 02be bb19 e1bd c2ae 513e
000003e0: b3ce 0c3c 7251 78be faa6 50bb b3e0 243e
000003f0: c9b6 513e a040 d3be 0d16 bf3e 95b8 ffbd

val_conv1.bias f4 [2]
-0.0002107218 0.097038224
00000000: 34f5 5cb9 fabb c63d

val_fc1.weight f4 [64, 72]
-5.0244e-41 -4.9462e-41 -4.9369e-41 4.9246e-41 4.9558e-41 -4.953e-41 5.0075e-41 4.9149e-41
-4.9174e-41 4.9373e-41 -4.935e-41 4.9382e-41 4.9156e-41 4.9556e-41 -4.9162e-41 4.9195e-41
4.951e-41 4.9251e-41 -4.9198e-41 -4.935e-41 4.9393e-41 4.9449e-41 4.9242e-41 4.9582e-41
-4.9366e-41 -4.9156e-41 -4.9073e-41 -4.9519e-41 -4.9153e-41 -4.9127e-41 4.9637e-41 -4.9148e-41
4.9103e-41 -4.932e-41 -4.9501e-41 4.9218e-41 -0.26044562 -0.108231366 -0.10174084 0.006533117
-0.057016097 0.09573329 -0.20357999 -0.08792275 0.07029448 0.029021984 0.16027991 0.0891672
0.016440902 -0.19432257 0.03359675 -0.13870709 -0.09402829 -0.046674494 -0.08063118 0.044511836
0.16146678 -0.099962495 0.11616564 -0.07628867 -0.08224615 -0.20911711 0.22011316 0.16812493
0.08029198 0.011003326 -0.10487239 -0.07749089 0.1367684 0.22054748 -0.07586326 -0.15861455
-5.0361e-41 -4.9818e-41 -4.9068e-41 4.923e-41 5.164e-41 -5.0154e-41 -4.95e-41 4.9397e-41
-5.0934e-41 -4.9544e-41 -5.4463e-41 4.9358e-41 5.0447e-41 4.9553e-41 -4.9233e-41 -4.9078e-41
5.0416e-41 4.92e-41 -4.9456e-41 -5.2958e-41 5.1157e-41 4.9431e-41 -5.4222e-41 -4.905e-41
-4.9717e-41 4.924e-41 -5.0423e-41 -4.948e-41 -5.0004e-41 -5.0145e-41 4.9574e-41 4.9364e-41
-5.1054e-41 -4.9584e-41 -4.9232e-41 -5.0165e-41 -0.04026627 -0.29516873 -0.2504622 0.046484053
0.026785957 -0.42089137 0.058415208 -0.041486207 -0.21701741 0.097300254 0.25608715 -0.19686504
0.09554973 -0.31416127 0.05316664 -0.040329643 0.105137855 -0.16862188 -0.077846915 0.059117857
-0.18798636 0.08775236 0.26922646 -0.099056296 -0.3750915 -0.09622981 0.031248666 0.15336229
0.22382075 0.13048866 0.12669775 0.28718287 -0.15730973 -0.018224096 -0.05601755 0.2706982
-4.9131e-41 -4.9228e-41 4.9225e-41 -4.9448e-41 4.9207e-41 4.9093e-41 4.939e-41 4.9124e-41
4.9497e-41 4.9443e-41 -5.0011e-41 4.9397e-41 4.9376e-41 -4.9048e-41 -4.9424e-41 -4.9277e-41
-4.9183e-41 4.9211e-41 4.9135e-41 4.9272e-41 -4.9187e-41 4.9411e-41 -4.9158e-41 -4.919e-41
4.9407e-41 4.9257e-41 4.9274e-41 4.9329e-41 -4.923e-41 4.9312e-41 -4.9546e-41 4.9477e-41
-4.948e-41 4.94e-41 -4.937e-41 4.9065e-41 0.0024198422 0.13958645 -0.06918749 -0.09061522
-0.10573287 0.16170289 0.10831964 -0.11988149 0.1486424 0.29784727 -0.29026586 0.20670399
0.015928863 -0.193208 0.040142596 0.23193927 -0.11374931 0.0016285527 0.0071245874 -0.13246737
-0.056830127 -0.021356644 0.059234563 0.12804101 0.13935608 0.04796175 0.11728368 -0.14940412
0.19171631 -0.36466447 -0.12298363 0.096630216 -0.24765982 0.07213276 0.0800062 -0.22811835
-4.9149e-41 4.9134e-41 4.9868e-41 -4.9424e-41 4.9385e-41 4.914e-41 -4.9047e-41 4.9491e-41
-4.9399e-41 4.9537e-41 4.9452e-41 -4.9358e-41 4.9526e-41 -4.9239e-41 4.9889e-41 4.9087e-41
4.929e-41 -4.9336e-41 -4.9062e-41 4.9064e-41 4.9459e-41 4.9574e-41 -4.9065e-41 4.957e-41
-4.9455e-41 -4.9103e-41 -4.9619e-41 -4.9314e-41 4.9134e-41 4.9348e-41 -5.0842e-41 4.9083e-41
5.0158e-41 -4.9327e-41 4.9142e-41 -4.9144e-41 0.20845108 -0.23749632 -0.12126944 -0.17700928
00000000: 0f8c 0080 e189 0080 9f89 0080 4789 0000
00000010: 268a 0000 128a 0080 978b 0000 0289 0000
00000020: 1489 0080 a289 0000 9189 0080 a889 0000
00000030: 0789 0000 248a 0000 0b89 0080 2389 0000
00000040: 048a 0000 4b89 0000 2589 0080 9189 0080
00000050: b089 0000 d889 0000 4489 0000 378a 0000
00000060: 9d89 0080 0789 0080 cc88 0080 0a8a 0080
00000070: 0589 0080 f288 0080 5e8a 0000 0189 0080
00000080: e188 0000 7c89 0080 fd89 0080 3389 0000
00000090: 2159 85be 68a8 ddbd 805d d0bd c213 d63b
000000a0: b689 69bd d10f c43d 4677 50be d810 b4bd
000000b0: 8df6 8f3d 83bf ed3c 6b20 243e 4b9d b63d
000000c0: 12af 863c 7ffc 46be bf9c 093d 3b09 0ebe
000000d0: e791 c0bd c12d 3fbd f621 a5bd 0b52 363d
000000e0: 8c57 253e 23b9 ccbd 40e8 ed3d 3c3d 9cbd
000000f0: ab70 a8bd cc22 56be 5865 613e f128 2c3e
00000100: 1f70 a43d 4b47 343c 56c7 d6bd 8bb3 9ebd
00000110: 040d 0c3e 33d7 613e 325e 9bbd da6b 22be
00000120: 638c 0080 df8a 0080 c888 0080 3c89 0000
00000130: f48f 0000 cf8b 0080 fc89 0080 b389 0000
00000140: fc8d 0080 1c8a 0080 d297 0080 9789 0000
00000150: a08c 0000 228a 0000 3e89 0080 cf88 0080
00000160: 8a8c 0000 2689 0000 dd89 0080 a093 0080
00000170: 9b8e 0000 cb89 0000 2697 0080 bb88 0080
00000180: 978a 0080 4389 0000 8f8c 0080 ee89 0080
00000190: 648b 0080 c98b 0080 318a 0000 9b89 0000
000001a0: 518e 0080 388a 0080 3d89 0080 d78b 0080
000001b0: 3fee 24bd 5b20 97be 953c 80be 1066 3e3d
000001c0: 396e db3c 137f d7be c944 6f3d 71ed 29bd
000001d0: d039 5ebe 5b45 c73d db1d 833e fd96 49be
000001e0: 94af c33d bfd9 a0be 43c5 593d b230 25bd
000001f0: 8452 d73d 37ab 2cbe 346e 9fbd 9125 723d
00000200: 7f7f 40be 82b7 b33d 0dd8 893e 07de cabd
00000210: fe0b c0be 2214 c5bd 34fd ff3c 010b 1d3e
00000220: 4431 653e d29e 053e 0ebd 013e a209 933e
00000230: cd15 21be b34a 95bc a972 65bd f498 8a3e
00000240: f588 0080 3a89 0080 3889 0000 d789 0080
00000250: 2b89 0000 da88 0000 ae89 0000 f088 0000
00000260: fa89 0000 d489 0000 698b 0080 b389 0000
00000270: a489 0000 ba88 0080 c689 0080 5d89 0080
00000280: 1a89 0080 2e89 0000 f888 0000 5a89 0000
00000290: 1d89 0080 bd89 0000 0889 0080 1f89 0080
000002a0: ba89 0000 4f89 0000 5b89 0000 8289 0000
000002b0: 3c89 0080 7689 0000 1d8a 0080 ec89 0000
000002c0: ee89 0080 b589 0000 a089 0080 c688 0000
000002d0: 3796 1e3b c0ef 0e3e 2cb2 8dbd 7994 b9bd
000002e0: 7a8a d8bd 7195 253e b0d6 dd3d 6d84 f5bd
000002f0: b735 183e 707f 983e ba9d 94be 36aa 533e
00000300: 3f7d 823c 51d8 45be 906c 243d 7d81 6d3e
00000310: 66f5 e8bd 2975 d53a 5f75 e93b 87a5 07be
00000320: b5c6 68bd 21f4 aebc f19f 723d 2f1d 033e
00000330: 5cb3 0e3e 8a73 443d 6d32 f03d 65fd 18be
00000340: 4851 443e 4db5 babe d7de fbbd 10e6 c53d
00000350: 899a 7dbe 57ba 933d 4ada a33d db97 69be
00000360: 0289 0080 f788 0000 038b 0000 c689 0080
00000370: aa89 0000 fb88 0000 b988 0080 f689 0000
00000380: b489 0080 178a 0000 da89 0000 9789 0080
00000390: 0f8a 0000 4289 0080 128b 0000 d688 0000
000003a0: 6789 0000 8789 0080 c488 0080 c588 0000
000003b0: df89 0000 318a 0000 c688 0080 2e8a 0000
000003c0: dc89 0080 e188 0080 518a 0080 7889 0080
000003d0: f788 0000 9089 0000 ba8d 0080 d388 0000
000003e0: d28b 0000 8189 0080 fd88 0000 fe88 0080
000003f0: 3374 553e 3c32 73be 1d5c f8bd ec41 35be
